projects/silabs-firmware-edge-device/app/i2s_mic_xg26_audio_data_capture/config/tflite/model_int8_with_quant_3.tflite (tflite, 219384 bytes, 8 tensors)

tfl.pseudo_qconst1 i1 [3, 128]
0	0x23	35
1	0xbc	-68
2	0x97	-105
3	0xd5	-43
4	0x98	-104
5	0xab	-85
6	0x27	39
7	0x7a	122
8	0x89	-119
9	0x93	-109
10	0x53	83
11	0x6d	109
12	0x38	56
13	0x91	-111
14	0x7e	126
15	0xb1	-79
16	0x3b	59
17	0x12	18
18	0xb9	-71
19	0x6b	107
20	0x2d	45
21	0xff	-1
22	0x3f	63
23	0x1b	27
24	0xb9	-71
25	0xd2	-46
26	0x0e	14
27	0x33	51
28	0x6e	110
29	0xd2	-46
30	0xf5	-11
31	0x97	-105
32	0x02	2
33	0xb2	-78
34	0xa4	-92
35	0x92	-110
36	0xc9	-55
37	0x47	71
38	0xa0	-96
39	0x4a	74
40	0x6e	110
41	0xf4	-12
42	0x00	0
43	0xa1	-95
44	0xbc	-68
45	0x60	96
46	0x04	4
47	0x31	49
48	0x1f	31
49	0x74	116
50	0x9a	-102
51	0x6b	107
52	0x59	89
53	0x42	66
54	0x5a	90
55	0x9a	-102
56	0x53	83
57	0x5f	95
58	0x9b	-101
59	0x6e	110
60	0xa1	-95
61	0xd4	-44
62	0x4e	78
63	0xcb	-53
64	0x26	38
65	0x2c	44
66	0x05	5
67	0xbc	-68
68	0x45	69
69	0x11	17
70	0x69	105
71	0x47	71
72	0xd6	-42
73	0x5d	93
74	0x0b	11
75	0x66	102
76	0x71	113
77	0x2a	42
78	0xc4	-60
79	0xb3	-77
80	0xad	-83
81	0x8c	-116
82	0x50	80
83	0x3b	59
84	0xed	-19
85	0x32	50
86	0xda	-38
87	0x72	114
88	0xf3	-13
89	0xbc	-68
90	0x1c	28
91	0x46	70
92	0x54	84
93	0xac	-84
94	0x62	98
95	0x22	34
96	0xd3	-45
97	0x90	-112
98	0xd6	-42
99	0x1c	28
100	0x8f	-113
101	0x7b	123
102	0x2d	45
103	0xed	-19
104	0xf0	-16
105	0xa5	-91
106	0x72	114
107	0x9a	-102
108	0x7f	127
109	0xcc	-52
110	0xd6	-42
111	0x88	-120
112	0x92	-110
113	0xce	-50
114	0x0d	13
115	0xca	-54
116	0xc6	-58
117	0xe4	-28
118	0x2b	43
119	0xe5	-27
120	0x15	21
121	0xef	-17
122	0x57	87
123	0xb0	-80
124	0x71	113
125	0xdf	-33
126	0x07	7
127	0xde	-34
128	0xc4	-60
129	0x13	19
130	0xf3	-13
131	0x02	2
132	0xe3	-29
133	0x98	-104
134	0x4f	79
135	0x57	87
136	0xcd	-51
137	0x93	-109
138	0x53	83
139	0xeb	-21
140	0x6b	107
141	0xa1	-95
142	0x67	103
143	0x38	56
144	0xe0	-32
145	0xda	-38
146	0x63	99
147	0x36	54
148	0xc1	-63
149	0xbf	-65
150	0x4f	79
151	0x62	98
152	0x53	83
153	0xde	-34
154	0x5d	93
155	0x8f	-113
156	0x9d	-99
157	0xf0	-16
158	0xa6	-90
159	0x40	64
160	0x8f	-113
161	0xbf	-65
162	0x5b	91
163	0x83	-125
164	0x51	81
165	0xdf	-33
166	0x7e	126
167	0x56	86
168	0x54	84
169	0xfa	-6
170	0xa4	-92
171	0x20	32
172	0x50	80
173	0x0f	15
174	0x3e	62
175	0xd7	-41
176	0x6b	107
177	0xe1	-31
178	0x81	-127
179	0xe6	-26
180	0x97	-105
181	0xe4	-28
182	0x46	70
183	0x58	88
184	0x71	113
185	0x74	116
186	0x82	-126
187	0x97	-105
188	0x64	100
189	0x21	33
190	0x0d	13
191	0x07	7
192	0x9b	-101
193	0xc1	-63
194	0x27	39
195	0xf4	-12
196	0x1e	30
197	0x56	86
198	0xfa	-6
199	0x14	20
200	0xaf	-81
201	0x14	20
202	0x16	22
203	0xbf	-65
204	0xc0	-64
205	0x87	-121
206	0xe1	-31
207	0x22	34
208	0xd7	-41
209	0x18	24
210	0xe1	-31
211	0x01	1
212	0x6c	108
213	0xb8	-72
214	0x98	-104
215	0x7a	122
216	0x27	39
217	0x87	-121
218	0x21	33
219	0x52	82
220	0x3b	59
221	0x16	22
222	0x30	48
223	0x99	-103
224	0xc0	-64
225	0x03	3
226	0x60	96
227	0x68	104
228	0x20	32
229	0x65	101
230	0xb6	-74
231	0xc2	-62
232	0x66	102
233	0x6c	108
234	0x1d	29
235	0x03	3
236	0x12	18
237	0x06	6
238	0x38	56
239	0xb0	-80
240	0x90	-112
241	0xbb	-69
242	0xf8	-8
243	0x9f	-97
244	0x99	-103
245	0xdd	-35
246	0x13	19
247	0x4d	77
248	0x5b	91
249	0xa1	-95
250	0x32	50
251	0x4f	79
252	0xeb	-21
253	0x32	50
254	0x0a	10
255	0x09	9

tfl.pseudo_qconst3 i1 [128, 1472]
0	0xd5	-43
1	0xd7	-41
2	0xf7	-9
3	0x1a	26
4	0xd4	-44
5	0x4b	75
6	0xa8	-88
7	0x4c	76
8	0x11	17
9	0xd8	-40
10	0x07	7
11	0xbc	-68
12	0xba	-70
13	0xa7	-89
14	0x55	85
15	0x08	8
16	0x03	3
17	0x68	104
18	0x0d	13
19	0x12	18
20	0x2c	44
21	0xd1	-47
22	0x92	-110
23	0xde	-34
24	0x9f	-97
25	0xb7	-73
26	0xaa	-86
27	0x98	-104
28	0x22	34
29	0xa4	-92
30	0xf2	-14
31	0x22	34
32	0x21	33
33	0x81	-127
34	0xa6	-90
35	0xef	-17
36	0xfc	-4
37	0xa3	-93
38	0x22	34
39	0xb7	-73
40	0x35	53
41	0xcd	-51
42	0x48	72
43	0xa5	-91
44	0xfc	-4
45	0x42	66
46	0xba	-70
47	0x28	40
48	0x09	9
49	0x02	2
50	0x51	81
51	0xee	-18
52	0x0c	12
53	0x39	57
54	0x07	7
55	0x60	96
56	0x0f	15
57	0xe6	-26
58	0x14	20
59	0xf5	-11
60	0xf3	-13
61	0x30	48
62	0xa5	-91
63	0x36	54
64	0x18	24
65	0x45	69
66	0x18	24
67	0x13	19
68	0xcd	-51
69	0xe3	-29
70	0x38	56
71	0xf7	-9
72	0x48	72
73	0xfc	-4
74	0x40	64
75	0xb6	-74
76	0xb2	-78
77	0xad	-83
78	0xd0	-48
79	0xbc	-68
80	0xd9	-39
81	0x07	7
82	0x1c	28
83	0x18	24
84	0xba	-70
85	0x26	38
86	0x38	56
87	0xd0	-48
88	0xc5	-59
89	0xed	-19
90	0x95	-107
91	0xbf	-65
92	0x36	54
93	0x95	-107
94	0xa8	-88
95	0x2a	42
96	0xf7	-9
97	0xed	-19
98	0x4a	74
99	0xac	-84
100	0x22	34
101	0xb7	-73
102	0x17	23
103	0x40	64
104	0x4e	78
105	0x29	41
106	0xc0	-64
107	0x03	3
108	0x21	33
109	0xe9	-23
110	0x23	35
111	0x14	20
112	0xdc	-36
113	0xc5	-59
114	0xbe	-66
115	0xd9	-39
116	0x50	80
117	0x19	25
118	0xff	-1
119	0xc2	-62
120	0xee	-18
121	0xb0	-80
122	0x35	53
123	0xcd	-51
124	0xdb	-37
125	0xb4	-76
126	0x83	-125
127	0xe8	-24
128	0x4e	78
129	0xf2	-14
130	0x1d	29
131	0x45	69
132	0x0c	12
133	0x35	53
134	0xbc	-68
135	0x47	71
136	0xc3	-61
137	0x45	69
138	0xf3	-13
139	0xf8	-8
140	0x36	54
141	0x18	24
142	0xe4	-28
143	0xa1	-95
144	0x37	55
145	0xf8	-8
146	0x27	39
147	0xa7	-89
148	0xe6	-26
149	0x3e	62
150	0xe6	-26
151	0x91	-111
152	0x1a	26
153	0x23	35
154	0xc7	-57
155	0x86	-122
156	0xef	-17
157	0xee	-18
158	0x1a	26
159	0x38	56
160	0x3c	60
161	0xff	-1
162	0x36	54
163	0x93	-109
164	0xee	-18
165	0x10	16
166	0x92	-110
167	0x45	69
168	0x4f	79
169	0xb1	-79
170	0xd7	-41
171	0xf1	-15
172	0xca	-54
173	0xbd	-67
174	0xad	-83
175	0xfe	-2
176	0x38	56
177	0xc3	-61
178	0x48	72
179	0xb6	-74
180	0x3a	58
181	0x59	89
182	0x13	19
183	0xfe	-2
184	0x52	82
185	0xb0	-80
186	0xb0	-80
187	0x27	39
188	0xfd	-3
189	0x34	52
190	0xfb	-5
191	0xc2	-62
192	0xcd	-51
193	0xd9	-39
194	0xc6	-58
195	0xc9	-55
196	0x37	55
197	0xb7	-73
198	0x4b	75
199	0x38	56
200	0xf7	-9
201	0x4a	74
202	0xcd	-51
203	0x4d	77
204	0xd7	-41
205	0xde	-34
206	0x2c	44
207	0x17	23
208	0x57	87
209	0x66	102
210	0xde	-34
211	0x18	24
212	0x11	17
213	0xe4	-28
214	0x54	84
215	0xef	-17
216	0x37	55
217	0xe9	-23
218	0x47	71
219	0xa1	-95
220	0x2c	44
221	0x9d	-99
222	0x36	54
223	0x42	66
224	0xed	-19
225	0xe9	-23
226	0xdb	-37
227	0xdb	-37
228	0xa8	-88
229	0x16	22
230	0xed	-19
231	0x38	56
232	0xc9	-55
233	0xa2	-94
234	0x12	18
235	0x34	52
236	0xec	-20
237	0x3b	59
238	0xeb	-21
239	0x3b	59
240	0x41	65
241	0xd9	-39
242	0xc7	-57
243	0xf8	-8
244	0xeb	-21
245	0xb1	-79
246	0xd3	-45
247	0x11	17
248	0x43	67
249	0xc1	-63
250	0x12	18
251	0xb9	-71
252	0xfe	-2
253	0x2c	44
254	0x53	83
255	0xdf	-33

tfl.pseudo_qconst4 i1 [64] scale=0.0033945418 zero_point=127
0	0xd2	-0.5872557
1	0xdf	-0.5431267
2	0xcf	-0.59743935
3	0x9b	-0.7739555
4	0xa1	-0.75358826
5	0xd9	-0.56349397
6	0xc9	-0.6178066
7	0x80	-0.86560816
8	0xe4	-0.526154
9	0xca	-0.61441207
10	0xcc	-0.607623
11	0xaa	-0.7230374
12	0xc5	-0.6313848
13	0xd9	-0.56349397
14	0xdd	-0.5499158
15	0xaa	-0.7230374
16	0xbb	-0.6653302
17	0xb4	-0.689092
18	0xa3	-0.7467992
19	0xe6	-0.5193649
20	0xc7	-0.6245957
21	0xd4	-0.5804666
22	0xc4	-0.63477933
23	0xc9	-0.6178066
24	0xe9	-0.50918126
25	0xb7	-0.67890835
26	0xd6	-0.57367754
27	0xc8	-0.62120116
28	0xde	-0.54652125
29	0xcc	-0.607623
30	0xbf	-0.651752
31	0xc2	-0.6415684
32	0xc7	-0.6245957
33	0xe5	-0.52275944
34	0xec	-0.49899766
35	0xdf	-0.5431267
36	0xed	-0.4956031
37	0xb2	-0.69588107
38	0xbe	-0.65514654
39	0xdc	-0.55331033
40	0xb8	-0.6755138
41	0xdb	-0.5567049
42	0xb5	-0.68569744
43	0xfa	-0.45147407
44	0xbf	-0.651752
45	0xe2	-0.53294307
46	0xd3	-0.5838612
47	0xe6	-0.5193649
48	0xda	-0.5600994
49	0xf1	-0.48202494
50	0xd6	-0.57367754
51	0xcd	-0.60422844
52	0xbd	-0.6585411
53	0xd7	-0.570283
54	0xb2	-0.69588107
55	0xdd	-0.5499158
56	0xa9	-0.72643197
57	0xd3	-0.5838612
58	0xcb	-0.6110175
59	0xbd	-0.6585411
60	0xbc	-0.6619356
61	0xc4	-0.63477933
62	0xab	-0.7196429
63	0xb2	-0.69588107

tfl.pseudo_qconst5 i1 [64] scale=0.008885347 zero_point=-128
0	0x41	1.714872
1	0x0f	1.2706046
2	0x38	1.6349039
3	0x4c	1.8126109
4	0x59	1.9281204
5	0x07	1.1995219
6	0x33	1.5904771
7	0xbc	0.5331208
8	0x24	1.457197
9	0x32	1.5815918
10	0x2c	1.5282798
11	0x7f	2.2657635
12	0x08	1.2084073
13	0x01	1.1462098
14	0x05	1.1817511
15	0x4a	1.7948401
16	0x18	1.3505728
17	0x21	1.4305409
18	0x51	1.8570375
19	0x00	1.1373245
20	0x35	1.6082479
21	0x23	1.4483116
22	0xd3	0.7374838
23	0x47	1.7681841
24	0x16	1.332802
25	0x1c	1.3861141
26	0x14	1.3150314
27	0x1d	1.3949995
28	0x10	1.27949
29	0xd2	0.7285985
30	0xbd	0.5420062
31	0x1a	1.3683435
32	0xd1	0.71971315
33	0xf9	1.075127
34	0x3a	1.6526746
35	0x23	1.4483116
36	0x0a	1.2261779
37	0x11	1.2883754
38	0x4e	1.8303815
39	0x12	1.2972608
40	0xd6	0.7641399
41	0xfc	1.101783
42	0x2b	1.5193944
43	0x1e	1.4038849
44	0x52	1.8659229
45	0xf9	1.075127
46	0x46	1.7592988
47	0x0c	1.2439486
48	0x6e	2.1147127
49	0xf0	0.9951589
50	0x26	1.4749676
51	0x3c	1.6704453
52	0xc3	0.59531826
53	0x57	1.9103496
54	0x23	1.4483116
55	0x45	1.7504134
56	0x58	1.919235
57	0x12	1.2972608
58	0xd9	0.7907959
59	0xe2	0.870764
60	0x3a	1.6526746
61	0xe6	0.90630543
62	0x50	1.8481523
63	0x48	1.7770694

tfl.pseudo_qconst7 i1 [64, 3, 3, 32]
0	0xdf	-33
1	0xab	-85
2	0x2a	42
3	0x2e	46
4	0xef	-17
5	0xe5	-27
6	0xf8	-8
7	0x40	64
8	0x2c	44
9	0x07	7
10	0x12	18
11	0xae	-82
12	0xe1	-31
13	0x40	64
14	0x3c	60
15	0x18	24
16	0x23	35
17	0xa9	-87
18	0x81	-127
19	0xf8	-8
20	0x29	41
21	0xff	-1
22	0x0d	13
23	0xc7	-57
24	0xd0	-48
25	0x11	17
26	0x39	57
27	0xf0	-16
28	0x0c	12
29	0x19	25
30	0xe8	-24
31	0x35	53
32	0x45	69
33	0x02	2
34	0x1a	26
35	0x31	49
36	0x0e	14
37	0xfe	-2
38	0x98	-104
39	0x1a	26
40	0xb4	-76
41	0xba	-70
42	0xc2	-62
43	0x10	16
44	0x19	25
45	0x60	96
46	0xb2	-78
47	0x14	20
48	0x3a	58
49	0xcf	-49
50	0x26	38
51	0x08	8
52	0xcb	-53
53	0x53	83
54	0xb7	-73
55	0x45	69
56	0xd5	-43
57	0xe8	-24
58	0xf4	-12
59	0x19	25
60	0x44	68
61	0xd0	-48
62	0x03	3
63	0x29	41
64	0xc4	-60
65	0x1f	31
66	0xb5	-75
67	0xec	-20
68	0x24	36
69	0x91	-111
70	0xad	-83
71	0x14	20
72	0x36	54
73	0xc5	-59
74	0xbf	-65
75	0xb8	-72
76	0x30	48
77	0x2e	46
78	0x03	3
79	0x03	3
80	0xca	-54
81	0x35	53
82	0x12	18
83	0x1c	28
84	0x24	36
85	0x12	18
86	0x05	5
87	0xf6	-10
88	0xb4	-76
89	0xbc	-68
90	0x37	55
91	0xe9	-23
92	0xbf	-65
93	0xe9	-23
94	0x42	66
95	0xf7	-9
96	0xfa	-6
97	0x2a	42
98	0x02	2
99	0xae	-82
100	0xcd	-51
101	0x06	6
102	0xe9	-23
103	0xde	-34
104	0x05	5
105	0xc4	-60
106	0x26	38
107	0x2f	47
108	0xcd	-51
109	0x33	51
110	0xe2	-30
111	0xd8	-40
112	0xe6	-26
113	0xde	-34
114	0xac	-84
115	0xaf	-81
116	0x3b	59
117	0x9f	-97
118	0x4a	74
119	0xcc	-52
120	0xd1	-47
121	0xd4	-44
122	0xca	-54
123	0xb8	-72
124	0xbd	-67
125	0x36	54
126	0xb1	-79
127	0xfb	-5
128	0xb7	-73
129	0x1e	30
130	0xd8	-40
131	0xd0	-48
132	0x5e	94
133	0x08	8
134	0xd6	-42
135	0xe0	-32
136	0xe8	-24
137	0xe2	-30
138	0x18	24
139	0x4f	79
140	0x3f	63
141	0xf7	-9
142	0xd0	-48
143	0xbb	-69
144	0xbe	-66
145	0x20	32
146	0xd5	-43
147	0x3d	61
148	0x1d	29
149	0x4f	79
150	0x2c	44
151	0xf7	-9
152	0x01	1
153	0x5d	93
154	0x49	73
155	0x2e	46
156	0xdb	-37
157	0xf7	-9
158	0xc7	-57
159	0x0e	14
160	0xdd	-35
161	0x12	18
162	0x18	24
163	0xf9	-7
164	0x12	18
165	0xb2	-78
166	0xd9	-39
167	0x00	0
168	0xdf	-33
169	0xfa	-6
170	0xff	-1
171	0x26	38
172	0xac	-84
173	0x21	33
174	0x52	82
175	0xa3	-93
176	0x2e	46
177	0xc3	-61
178	0x42	66
179	0xce	-50
180	0xb7	-73
181	0xf4	-12
182	0x0c	12
183	0x08	8
184	0x32	50
185	0x3c	60
186	0x02	2
187	0x2a	42
188	0xea	-22
189	0xc5	-59
190	0x28	40
191	0x1d	29
192	0x29	41
193	0xb1	-79
194	0x36	54
195	0xef	-17
196	0xfb	-5
197	0x0e	14
198	0x09	9
199	0xc1	-63
200	0xcb	-53
201	0x07	7
202	0xbe	-66
203	0x09	9
204	0x8e	-114
205	0xf8	-8
206	0xd3	-45
207	0xc7	-57
208	0x1c	28
209	0x42	66
210	0xc4	-60
211	0xaa	-86
212	0xc1	-63
213	0xc6	-58
214	0xce	-50
215	0xfe	-2
216	0x38	56
217	0x14	20
218	0x06	6
219	0xf4	-12
220	0x01	1
221	0x1f	31
222	0x3c	60
223	0xac	-84
224	0x1e	30
225	0xe6	-26
226	0x08	8
227	0xe5	-27
228	0x00	0
229	0x36	54
230	0xb7	-73
231	0xf6	-10
232	0xc0	-64
233	0x0b	11
234	0x14	20
235	0x59	89
236	0x68	104
237	0x59	89
238	0x9e	-98
239	0xf6	-10
240	0xa7	-89
241	0xfb	-5
242	0x1c	28
243	0xe8	-24
244	0x43	67
245	0x1e	30
246	0x2d	45
247	0xf2	-14
248	0x0f	15
249	0x41	65
250	0xd2	-46
251	0x2c	44
252	0x3e	62
253	0xdd	-35
254	0x65	101
255	0xf8	-8

tfl.pseudo_qconst8 i1 [32] scale=0.0028300816 zero_point=127
0	0xe1	-0.44715288
1	0xa6	-0.6141277
2	0xf1	-0.4018716
3	0xdb	-0.46413338
4	0xc3	-0.5320553
5	0xf6	-0.38772118
6	0xf4	-0.39338136
7	0xfc	-0.37074068
8	0xe1	-0.44715288
9	0xc8	-0.51790494
10	0xc5	-0.5263952
11	0xbf	-0.5433757
12	0x94	-0.66506916
13	0xd6	-0.4782838
14	0xe8	-0.42734233
15	0xe2	-0.44432282
16	0x95	-0.6622391
17	0xa6	-0.6141277
18	0xfb	-0.37357077
19	0xdd	-0.45847324
20	0xe7	-0.4301724
21	0xd4	-0.48394397
22	0x9f	-0.6339383
23	0x96	-0.65940905
24	0x80	-0.7216708
25	0xce	-0.50092447
26	0xd0	-0.4952643
27	0x94	-0.66506916
28	0xf3	-0.39621142
29	0xe9	-0.42451224
30	0xc3	-0.5320553
31	0x99	-0.6509188

tfl.pseudo_qconst9 i1 [32] scale=0.049967032 zero_point=-128
0	0x33	8.944098
1	0x25	8.24456
2	0x34	8.994065
3	0x54	10.593011
4	0xda	4.4970326
5	0x7f	12.741593
6	0x4a	10.093341
7	0x46	9.893473
8	0x31	8.844165
9	0xf0	5.5963078
10	0xf1	5.6462746
11	0x1a	7.694923
12	0x16	7.4950547
13	0x3f	9.543703
14	0xf9	6.046011
15	0xfe	6.295846
16	0x00	6.39578
17	0x10	7.1952524
18	0x71	12.042055
19	0x25	8.24456
20	0x10	7.1952524
21	0xf5	5.846143
22	0x0c	6.9953847
23	0xda	4.4970326
24	0x2c	8.59433
25	0xf4	5.7961755
26	0x0b	6.9454174
27	0x09	6.8454833
28	0x3b	9.343835
29	0x4c	10.1932745
30	0xe9	5.246538
31	0x14	7.3951206

tfl.pseudo_qconst11 i1 [32, 3, 3, 1]
0	0xb8	-72
1	0x4b	75
2	0x94	-108
3	0xb4	-76
4	0xff	-1
5	0x8b	-117
6	0x28	40
7	0x81	-127
8	0x2a	42
9	0xc1	-63
10	0xa4	-92
11	0xcc	-52
12	0x7f	127
13	0xdf	-33
14	0xf1	-15
15	0x23	35
16	0xd5	-43
17	0xb9	-71
18	0x8d	-115
19	0x36	54
20	0xa8	-88
21	0xf6	-10
22	0xf7	-9
23	0x7a	122
24	0xbd	-67
25	0x21	33
26	0x7f	127
27	0x02	2
28	0x84	-124
29	0xfe	-2
30	0x6a	106
31	0xcd	-51
32	0x4f	79
33	0x81	-127
34	0x34	52
35	0xca	-54
36	0x9b	-101
37	0x82	-126
38	0x92	-110
39	0xa5	-91
40	0x81	-127
41	0x33	51
42	0x9a	-102
43	0xa6	-90
44	0x26	38
45	0x50	80
46	0x7f	127
47	0xde	-34
48	0xf1	-15
49	0x01	1
50	0x4a	74
51	0x3e	62
52	0x83	-125
53	0xeb	-21
54	0xd3	-45
55	0x7f	127
56	0xcd	-51
57	0xc6	-58
58	0x61	97
59	0xd4	-44
60	0x8d	-115
61	0x06	6
62	0x99	-103
63	0xa3	-93
64	0x81	-127
65	0x9f	-97
66	0x53	83
67	0x55	85
68	0x6f	111
69	0xd3	-45
70	0x67	103
71	0xad	-83
72	0xbf	-65
73	0xf3	-13
74	0x67	103
75	0xd8	-40
76	0xf7	-9
77	0xd9	-39
78	0x81	-127
79	0x5e	94
80	0x65	101
81	0x7f	127
82	0x3f	63
83	0x22	34
84	0xda	-38
85	0x46	70
86	0xab	-85
87	0x62	98
88	0x32	50
89	0x5b	91
90	0x4b	75
91	0x0a	10
92	0x21	33
93	0x41	65
94	0x48	72
95	0x61	97
96	0x4c	76
97	0x5e	94
98	0x81	-127
99	0xc8	-56
100	0xff	-1
101	0x72	114
102	0x81	-127
103	0xba	-70
104	0xe2	-30
105	0xfd	-3
106	0xa7	-89
107	0x38	56
108	0x1c	28
109	0x89	-119
110	0x81	-127
111	0x03	3
112	0xd3	-45
113	0x46	70
114	0x3c	60
115	0x99	-103
116	0x24	36
117	0x1f	31
118	0x06	6
119	0xf4	-12
120	0x81	-127
121	0xc1	-63
122	0x2b	43
123	0xde	-34
124	0xe9	-23
125	0x2b	43
126	0xda	-38
127	0x7b	123
128	0x76	118
129	0x91	-111
130	0x74	116
131	0x7f	127
132	0x00	0
133	0xd1	-47
134	0x4c	76
135	0x6c	108
136	0x6a	106
137	0x1b	27
138	0x7b	123
139	0x81	-127
140	0x8d	-115
141	0x0b	11
142	0xa5	-91
143	0xb2	-78
144	0x06	6
145	0x9c	-100
146	0x6b	107
147	0x2b	43
148	0x7f	127
149	0x13	19
150	0x6b	107
151	0x42	66
152	0xef	-17
153	0xfb	-5
154	0x4c	76
155	0xe0	-32
156	0x17	23
157	0x59	89
158	0xf7	-9
159	0x7f	127
160	0xbc	-68
161	0xde	-34
162	0x9c	-100
163	0x9a	-102
164	0xa7	-89
165	0xac	-84
166	0x28	40
167	0x13	19
168	0x7f	127
169	0x65	101
170	0x4f	79
171	0x1e	30
172	0x0b	11
173	0x44	68
174	0x84	-124
175	0x6b	107
176	0x02	2
177	0xb0	-80
178	0x35	53
179	0x7f	127
180	0x5d	93
181	0x28	40
182	0x9b	-101
183	0x3c	60
184	0x5f	95
185	0x9b	-101
186	0x13	19
187	0xae	-82
188	0x81	-127
189	0x66	102
190	0xb1	-79
191	0x02	2
192	0x7f	127
193	0xcc	-52
194	0xa0	-96
195	0x30	48
196	0xf6	-10
197	0x94	-108
198	0x1f	31
199	0x52	82
200	0x81	-127
201	0xaf	-81
202	0x75	117
203	0xcf	-49
204	0x19	25
205	0xb4	-76
206	0xa1	-95
207	0xb5	-75
208	0x81	-127
209	0x36	54
210	0xa4	-92
211	0x81	-127
212	0x19	25
213	0x49	73
214	0x93	-109
215	0xb7	-73
216	0xd4	-44
217	0x95	-107
218	0xba	-70
219	0xf5	-11
220	0x74	116
221	0xfd	-3
222	0x7f	127
223	0x18	24
224	0x67	103
225	0x81	-127
226	0x29	41
227	0x60	96
228	0x8b	-117
229	0xc3	-61
230	0x7f	127
231	0x8d	-115
232	0xc6	-58
233	0x74	116
234	0xbd	-67
235	0x68	104
236	0xba	-70
237	0xe3	-29
238	0x8a	-118
239	0xea	-22
240	0x10	16
241	0x83	-125
242	0x81	-127
243	0x4d	77
244	0xd7	-41
245	0x7f	127
246	0x25	37
247	0x99	-103
248	0x59	89
249	0x5c	92
250	0x43	67
251	0x9a	-102
252	0xc9	-55
253	0xdf	-33
254	0xc9	-55
255	0x72	114
