resources/keyword_spotting_custom_model_v1.mltk/keyword_spotting_custom_model_v1.float32.tflite (tflite, 462908 bytes, 82 tensors)

arith.constant f4 [64]
0	0xbf98a680	-1.1925812
1	0x3faad908	1.3347483
2	0xbfa51174	-1.2895951
3	0x3fa206e9	1.2658359
4	0x3fa3160f	1.2741107
5	0xbf9d5bbb	-1.2293619
6	0x3f9b07f8	1.2111807
7	0xbfae005e	-1.3593862
8	0xbfb9e0af	-1.4521693
9	0x3fa45a56	1.2840068
10	0xbfa4f173	-1.2886184
11	0x3f9e2d41	1.235756
12	0x3f999ca5	1.2000929
13	0x3fa7cc53	1.310923
14	0x3fa28cab	1.2699178
15	0xbfa2638c	-1.2686629
16	0x3f9f91ec	1.2466407
17	0xbfc042fb	-1.5020441
18	0x3fb06b56	1.3782756
19	0xbfa99f73	-1.3251785
20	0xbfb8ae2d	-1.4428154
21	0xbfa7680e	-1.307863
22	0x3faf93c4	1.371697
23	0x3fb6e8e2	1.428982
24	0x3faf5a3a	1.369941
25	0xbfa2d247	-1.2720422
26	0xbfa81baa	-1.3133442
27	0xbf9ff487	-1.2496499
28	0xbf9d6646	-1.2296836
29	0xbfa5663f	-1.2921828
30	0x3fa699e5	1.3015715
31	0x3fb010ea	1.3755162
32	0xbfb0b032	-1.380377
33	0xbfa885c9	-1.3165828
34	0xbf989e5d	-1.1923329
35	0x3f979804	1.1843266
36	0xbf6edc62	-0.9330503
37	0xbfb5d077	-1.4204243
38	0xbf98f703	-1.1950382
39	0x3f90cb5c	1.131206
40	0xbf902a25	-1.1262861
41	0xbf9aa88d	-1.2082688
42	0x3fac6e5a	1.3471177
43	0x3fa7befc	1.3105159
44	0x3fa108c2	1.2580798
45	0x3fac0e1c	1.3441806
46	0x3f96a513	1.1769127
47	0xbfad81b1	-1.3555204
48	0x3fb1c1ab	1.3887228
49	0xbf9b940a	-1.2154553
50	0xbf9a7eb8	-1.2069921
51	0xbfa48728	-1.2853746
52	0xbf9e8bac	-1.2386374
53	0x3fab4e18	1.3383207
54	0x3fa377ef	1.2770976
55	0xbfa4ff17	-1.2890347
56	0xbfa8d03e	-1.318855
57	0x3fac4804	1.3459477
58	0x3fafae54	1.3725076
59	0xbfab4081	-1.337906
60	0xbf9cdfeb	-1.2255834
61	0xbfb03a4b	-1.376779
62	0x3fac7631	1.3473569
63	0x3fbe2e1b	1.485782

arith.constant2 f4 [4]
0	0xbe08b88e	-0.13351652
1	0xbe8c8f91	-0.27453282
2	0xbdd65db0	-0.10467088
3	0x3ed9e86e	0.42560142

arith.constant3 f4 [4, 64]
0	0x3d418f8f	0.04725605
1	0x3e81f528	0.25382352
2	0x3dac5f6a	0.08416636
3	0x3e2a4df1	0.16631295
4	0x3e247c67	0.1606308
5	0xbe8ae3fc	-0.27127063
6	0x3beab703	0.00716293
7	0xbeae1d50	-0.3400674
8	0xbe596a04	-0.21231848
9	0xbd2792a9	-0.04091135
10	0xbe2ad151	-0.1668141
11	0x3bc65f6f	0.006053857
12	0xbdbddad1	-0.092702515
13	0xbe183272	-0.14862993
14	0x3e7140d7	0.2355989
15	0x3e8e2481	0.27762225
16	0x3e530495	0.20607217
17	0x3e369693	0.17830877
18	0xbe17a980	-0.14810753
19	0xbdd96929	-0.10615761
20	0xbe719959	-0.23593654
21	0x3e67b5c2	0.22627929
22	0x3c09e643	0.008416715
23	0xbe7d4abb	-0.24735539
24	0x3d1b89a2	0.037973054
25	0xbdd000bd	-0.10156391
26	0x3ea33234	0.3187424
27	0xbe8ee8c8	-0.27911973
28	0x3e391c96	0.18077311
29	0xbdd53f9e	-0.10412525
30	0x3ea3288b	0.3186687
31	0x3e73c3d3	0.2380517
32	0x3e52a297	0.20569836
33	0xbe72f253	-0.23725252
34	0x3cab87f1	0.020938845
35	0x3e91b2bc	0.28456676
36	0xbeab1422	-0.33413798
37	0x3d422439	0.047397826
38	0xbdb88ac4	-0.090108424
39	0x3e742e93	0.23845892
40	0xbe67e3d9	-0.2264551
41	0xbe06b08d	-0.13153286
42	0x3d963e51	0.07336105
43	0x3dc6a179	0.09698767
44	0x3e1cebae	0.1532428
45	0xbd6ba88c	-0.057533786
46	0xbc6b1e90	-0.014350548
47	0x3e1429ac	0.14469022
48	0x3e3af384	0.18256956
49	0xbe98fac9	-0.29878834
50	0x3e7e3230	0.24823833
51	0xbdcda3fd	-0.10041044
52	0xbe350240	-0.1767664
53	0xbe8c02d3	-0.27345905
54	0xbded3d30	-0.11583936
55	0x3dedf2b0	0.116185546
56	0x3e54aad9	0.20768298
57	0x3e446e42	0.19182685
58	0xbe883e3f	-0.2660999
59	0x3e9c63aa	0.30544788
60	0xbe49f322	-0.19721654
61	0x3cd0730e	0.025445487
62	0xbbff362a	-0.0077884393
63	0xbdc722bf	-0.09723424
64	0x3e408f84	0.18804747
65	0x3c16e93a	0.009210879
66	0x3e8bdedf	0.27318475
67	0x3c46dcfd	0.012137649
68	0xbd53c9a6	-0.05170598
69	0xbe0add54	-0.13560992
70	0x3e21d910	0.15805459
71	0xbdd5901d	-0.10427878
72	0x3c083b99	0.00831499
73	0xbe7d5d79	-0.24742688
74	0xbd55f7e1	-0.05223835
75	0xbe96f1c1	-0.2948132
76	0xbe450bf9	-0.19242848
77	0x3e250fde	0.16119334
78	0x3d5ef82f	0.054435905
79	0x3db0eaef	0.0863856
80	0x3e9abc13	0.30221614
81	0x3e65b26e	0.22431347
82	0xbd8bcb49	-0.06825883
83	0xbcefbed8	-0.029265806
84	0xbe9e7e65	-0.30955806
85	0xbe891cd9	-0.26779822
86	0x3e2472e1	0.16059448
87	0xbe9bc648	-0.30424714
88	0xbd8378ca	-0.06419523
89	0x3e8056b1	0.2506614
90	0xbe50076f	-0.20315336
91	0x3e18d3c5	0.14924534
92	0x3db43ce0	0.088006735
93	0x3e17f737	0.14840399
94	0x3eb1f2a1	0.34755424
95	0xbdf80814	-0.12110916
96	0x3e24b6ad	0.1608531
97	0xbe5d7f2f	-0.21630548
98	0xbde3f360	-0.111304045
99	0x3dc46be5	0.09590892
100	0x3d03e19c	0.03219758
101	0xbd060ae8	-0.032725245
102	0x3e8406c7	0.2578642
103	0x3e82dff0	0.25561476
104	0x3e0c827c	0.13721651
105	0xbedec4ca	-0.43509513
106	0x3c8d377a	0.017238367
107	0xbd9cc00d	-0.07653818
108	0x3e0562db	0.13025992
109	0x3e8a6970	0.27033567
110	0x3e81f6e0	0.25383663
111	0xbc515fe1	-0.012779207
112	0xbdd9dcab	-0.10637792
113	0x3d551d11	0.052029673
114	0x3e518cae	0.20463821
115	0x3dcce1e2	0.10004021
116	0x3cf96e82	0.030448202
117	0xbe68bafe	-0.22727582
118	0x3e35e4cc	0.1776306
119	0x3e0c7ed7	0.1372026
120	0xbe24a2f4	-0.16077787
121	0x3e01d1f2	0.12677744
122	0x3d8e34e3	0.06943681
123	0xbdcf8e6e	-0.10134588
124	0x3e6b119c	0.22955936
125	0x3c8f930d	0.017526174
126	0xbe875258	-0.2643001
127	0xbe9fad19	-0.3118675
128	0x3e2c51d3	0.16828088
129	0x3df29ec7	0.118466906
130	0x3df97279	0.12180037
131	0x3e8c0edd	0.2735509
132	0xbe74e83d	-0.23916717
133	0xbe67ad46	-0.22624692
134	0xbe3b2931	-0.18277432
135	0xbcaadfb8	-0.02085863
136	0xbe845aaf	-0.25850436
137	0xbe3fde69	-0.18737186
138	0xbd3cc2de	-0.046084277
139	0x3d97655b	0.07392379
140	0x3e02ce49	0.12774004
141	0xbdd97b3a	-0.10619207
142	0xbe4a8a16	-0.19779238
143	0xbc84faf3	-0.016232943
144	0xbe8d8a0d	-0.27644387
145	0x3cc8617e	0.02446055
146	0x3e71beb5	0.23607905
147	0x3b53e616	0.0032333187
148	0xbdf1ff2e	-0.1181625
149	0x3e7dd153	0.24786882
150	0xbe8a8656	-0.27055615
151	0x3e900d93	0.28135356
152	0xbb20729a	-0.002448237
153	0x3e81c901	0.25348666
154	0x3e8190d9	0.25305822
155	0x3e2155af	0.15755342
156	0xbe84e1c5	-0.25953498
157	0xbc6ab6b2	-0.0143257845
158	0x3d6d598d	0.05794673
159	0xbd393f8d	-0.045226622
160	0xbe9aec0c	-0.30258214
161	0xbd1b0aa8	-0.03785196
162	0x3e21fbcb	0.15818708
163	0x3e611f71	0.2198465
164	0x3e1d584e	0.15365717
165	0xbe02d5ee	-0.1277692
166	0x3e9feee1	0.31236938
167	0x3e0bbdc7	0.13646613
168	0xbd86115d	-0.065462805
169	0xbc947419	-0.018121766
170	0x3e5afaaf	0.2138469
171	0xbe912718	-0.2835014
172	0x3dd611db	0.104526244
173	0x3e5991e9	0.21247067
174	0xbe139f64	-0.14416271
175	0x3ce32ad0	0.027730376
176	0xbd10d3b6	-0.035358153
177	0x3df195a7	0.11796122
178	0xbec27e54	-0.37987006
179	0x3e2eb07f	0.17059515
180	0xbe4f3b45	-0.20237453
181	0x3dc322c2	0.09528114
182	0xbe0c87e5	-0.13723715
183	0xbe17faad	-0.14841719
184	0xbe9037ea	-0.2816766
185	0x3e9f9f71	0.31176332
186	0x3d3e2532	0.04642219
187	0x3e1aacb0	0.15104938
188	0xbe07ef6f	-0.1327493
189	0xbc8d65ee	-0.017260518
190	0x3db4ec6b	0.08834156
191	0x3e03be4b	0.1286556
192	0x3e843620	0.25822544
193	0x3e26bf18	0.16283834
194	0xbec57ebe	-0.3857326
195	0xbead0af9	-0.33797434
196	0xbd85cfe1	-0.065337904
197	0xbdd40589	-0.10352618
198	0x3e1fd2b0	0.15607715
199	0xbea47d3e	-0.32126802
200	0xbe8a95e4	-0.27067482
201	0x3d417056	0.047226273
202	0xbd02a6b3	-0.031897258
203	0xbe88ed75	-0.26743665
204	0x3e541b22	0.20713475
205	0x3e061af0	0.13096213
206	0x3e00d686	0.12581834
207	0xbed6d217	-0.4195716
208	0xbc0e263a	-0.008676106
209	0xbec65794	-0.38738692
210	0xbb2df09a	-0.0026541115
211	0xbea72365	-0.3264419
212	0x3e4f0481	0.20216562
213	0x3e111738	0.14169014
214	0x3db9f746	0.09080367
215	0x3e5faf7e	0.21844289
216	0x3e64be02	0.22338107
217	0xbeaa8df6	-0.33311433
218	0xbe3d8908	-0.18509305
219	0x3e12ee42	0.143487
220	0x3e3e42a7	0.18580113
221	0x3e73ff6e	0.23827907
222	0xbe6ec25f	-0.23316334
223	0xbe51a280	-0.20472145
224	0xbe998ede	-0.29991812
225	0xbe9bfea3	-0.3046771
226	0x3e5ab796	0.21359095
227	0xbd75fed8	-0.06005749
228	0x3e90ffd8	0.28320193
229	0x3df839d8	0.12120408
230	0x3e41f524	0.1894117
231	0xbeea6fe2	-0.45788485
232	0x3df3a936	0.11897509
233	0x3de6eb6b	0.11275371
234	0x3c2803a3	0.010254773
235	0x3e054c98	0.130175
236	0xbefaaa8c	-0.48958242
237	0xbdcb569d	-0.099286295
238	0x3dc259f9	0.09489817
239	0x3e897c68	0.26852727
240	0xbdfbdd2c	-0.122980446
241	0xbea952b9	-0.33070925
242	0x3db80a7c	0.08986375
243	0xbeaaa030	-0.33325338
244	0x3e17e344	0.14832789
245	0x3e3e72b9	0.1859845
246	0x3e84c975	0.2593495
247	0x3e054a01	0.13016511
248	0x3e36157b	0.17781632
249	0xbecb7200	-0.39735413
250	0xbed5fc58	-0.41794086
251	0xbe856a5f	-0.26057717
252	0x3e021e1c	0.12706798
253	0xbea69d03	-0.32541665
254	0xbe553ec7	-0.20824729
255	0xbe188359	-0.14893855

arith.constant4 f4 [64]
0	0x3f5ef4d0	0.87092304
1	0x3ec2f13a	0.38074666
2	0x3f9f4cd2	1.2445319
3	0x3fa4e393	1.288195
4	0x3f8ead3d	1.1146618
5	0xbd833154	-0.06405893
6	0xbe1e3a26	-0.1545187
7	0xbcb522f8	-0.022111401
8	0xbe94ca34	-0.2906052
9	0xbee104ea	-0.43949062
10	0x3e4f09ba	0.20218554
11	0x3f9f3b2b	1.2439932
12	0x3ec77b15	0.38961092
13	0xbe4b36d4	-0.19845134
14	0xbf0b7cf2	-0.54487526
15	0xbe2f40b2	-0.17114523
16	0xbedfd3f6	-0.437164
17	0x3e1b7ce4	0.1518436
18	0xbecc08d8	-0.39850497
19	0xbf5cd1de	-0.8625773
20	0xbf14cf6c	-0.58129
21	0x3cf096ee	0.029368844
22	0xc00f9b90	-2.2438698
23	0xbf329b17	-0.697679
24	0x3dee867a	0.11646743
25	0xbd8bfbc4	-0.0683513
26	0x3ee6fa14	0.4511267
27	0x3f8475ae	1.0348413
28	0x3fcb462f	1.5880793
29	0x3e975e76	0.29564255
30	0x3f80c0ef	1.0058879
31	0xbf9293e4	-1.1451383
32	0xbef444a6	-0.47708625
33	0xbecf8c54	-0.4053675
34	0xbe99741b	-0.29971394
35	0x3f173d3c	0.5907781
36	0xbe81a282	-0.25319296
37	0xbe940e7e	-0.28917307
38	0x3f0c93fb	0.549133
39	0xbd61c9b4	-0.055124
40	0x3de07c9a	0.10961266
41	0xbdc3486e	-0.09535299
42	0xbea35aeb	-0.31905302
43	0x3ea5fa52	0.32417542
44	0x3f15a4c3	0.5845453
45	0xbf36fbf5	-0.71478206
46	0x3f29916e	0.66237533
47	0x3f9c6b7a	1.2220299
48	0xbf922bcd	-1.1419617
49	0xbf5069dd	-0.81411535
50	0x3e54bba8	0.2077471
51	0xbf33f5fe	-0.7029723
52	0x3f83a746	1.0285423
53	0xbf0cba63	-0.54971904
54	0xbfa334ed	-1.2750527
55	0x3eeadc30	0.45871115
56	0xbdd729e0	-0.10506034
57	0x3e0f496d	0.13992853
58	0xbf9db55a	-1.2320969
59	0xbee61328	-0.4493649
60	0x3f0d9d96	0.5531858
61	0x3fcb07f7	1.5861806
62	0x3e4566d2	0.19277504
63	0x3f928ac0	1.1448593

arith.constant5 f4 [64]
0	0xbe6c22d4	-0.23060161
1	0x3dc5162a	0.09623368
2	0x3f2ad19a	0.66726077
3	0xbe6a1d7d	-0.22862811
4	0x3d9f3ff2	0.077758685
5	0xbf077c14	-0.52923703
6	0xbdc91b44	-0.09819654
7	0x3d5e78f0	0.054314554
8	0xbe6a29fc	-0.22867578
9	0x3eec8ecf	0.46202704
10	0x3ebd5412	0.36978203
11	0x3e9c3856	0.3051173
12	0x3e3b3624	0.18282372
13	0xbf261acd	-0.64884645
14	0x3ee7c58c	0.45267904
15	0x3d5f561a	0.054525472
16	0xbf9a5f17	-1.2060269
17	0x3dea3cd2	0.11437382
18	0x3f5211a8	0.8205819
19	0xbe9adc1a	-0.3024605
20	0x3e8d22dc	0.27565658
21	0xbf1ffbaa	-0.62493384
22	0xbf3565c5	-0.70858413
23	0xbef89f39	-0.48558977
24	0x3e35bd77	0.17748056
25	0xbfb1808d	-1.3867356
26	0x3ec19478	0.37808585
27	0xbeae6702	-0.34062964
28	0x3d26175e	0.04054963
29	0x3dcf7a9d	0.101308085
30	0xbefee5c5	-0.49784675
31	0x3f5305b2	0.82430565
32	0x3ebcf7c1	0.3690777
33	0x3f709add	0.939863
34	0xbf4a1617	-0.78939956
35	0x3d195803	0.03743745
36	0x3ddd6c22	0.1081164
37	0x3d639525	0.055562157
38	0x3c6c05e4	0.014405701
39	0xbea47809	-0.3212283
40	0xbf3511af	-0.7073011
41	0x3ea074f8	0.3133924
42	0x3f2c3694	0.6727078
43	0xbe0a254b	-0.13490789
44	0xbf33e694	-0.7027371
45	0xbf26a2a6	-0.6509193
46	0xbfa3b382	-1.2789156
47	0x3f44083b	0.7657506
48	0x3dc5f379	0.09665579
49	0xbe44a904	-0.192051
50	0xbf12fa7a	-0.57413447
51	0xbf050868	-0.5196595
52	0xbe04f45c	-0.1298384
53	0xbe5ec34b	-0.21754186
54	0xbde8f221	-0.113743074
55	0x3e996288	0.29957986
56	0x3ba586d0	0.0050514713
57	0x3f730007	0.94921917
58	0xbf31dced	-0.6947773
59	0xbfbabf28	-1.4589586
60	0x3f199028	0.5998559
61	0x3eb7ffc3	0.35937318
62	0x3ded755e	0.11594652
63	0x3e16478b	0.14675729

arith.constant6 f4 [64]
0	0xbf0ae921	-0.54261976
1	0x3f2ce489	0.67536217
2	0xbe9ce9f4	-0.30647242
3	0x3dc6dad5	0.09709708
4	0x3e1c87fc	0.15286249
5	0x3f206597	0.62655014
6	0x3e637769	0.2221352
7	0x3ead9fbd	0.33910933
8	0x3e95330b	0.29140505
9	0xbe01d715	-0.12679704
10	0xbda7b614	-0.081890255
11	0x3f25908c	0.64673686
12	0xbdbb68bc	-0.09150836
13	0x3ef2a24c	0.47389448
14	0xbd13bd20	-0.036069036
15	0x3f111afe	0.5668181
16	0xbf41b43d	-0.75665647
17	0x3eb3f186	0.35145205
18	0xb97cfd80	-0.00024127029
19	0xbd99d958	-0.07512158
20	0xbf4dd126	-0.8039726
21	0xbff86288	-1.9405069
22	0x3ebad76d	0.36492482
23	0x3ed78066	0.42090148
24	0x3f31b1dc	0.69412017
25	0xbf41c3a7	-0.75689167
26	0xbe5b0e38	-0.21392143
27	0x3e8c6280	0.274189
28	0xbedecaae	-0.43514007
29	0xbe997484	-0.29971707
30	0xbef5102c	-0.478639
31	0x3de3382a	0.11094697
32	0x3e0fb8be	0.14035317
33	0xbdd09e7a	-0.10186477
34	0xbe7c6494	-0.24647743
35	0x3dcff3af	0.10153901
36	0x3f1e5f4f	0.6186418
37	0x3e671fbd	0.22570701
38	0x3d548fa5	0.051894803
39	0x3eaa97e3	0.33319005
40	0xbf06600d	-0.5249031
41	0xbe60ddb6	-0.21959576
42	0xbdf08e41	-0.11745883
43	0x3f0903c6	0.5352138
44	0xbf38113b	-0.7190129
45	0xbf3879b0	-0.7206068
46	0xbae798e0	-0.0017669462
47	0x3e19cf99	0.15020598
48	0xbb936280	-0.004497826
49	0xbf31277e	-0.69200885
50	0xbf6aaded	-0.9167164
51	0x3ead52cc	0.33852232
52	0xbe6302c2	-0.22169021
53	0xbf303e61	-0.6884518
54	0xbdd62bb9	-0.10457558
55	0x3efdb532	0.49552304
56	0xbd3235b0	-0.04350823
57	0xbd164488	-0.03668645
58	0xbe42ddf8	-0.19029987
59	0xbe33f7fe	-0.1757507
60	0xbec67fc2	-0.38769346
61	0x3f1867c1	0.59533316
62	0x3e51f359	0.20502986
63	0x3ced56b8	0.028972015

arith.constant7 f4 [64]
0	0xbe4f0b91	-0.20219256
1	0xbe958652	-0.2920404
2	0xbe7a6f60	-0.24456549
3	0xbe6938de	-0.227756
4	0x3f007a4d	0.50186616
5	0x3ebaf7af	0.36517093
6	0xbf031f61	-0.51219755
7	0xbe15eede	-0.14641902
8	0xbf823426	-1.0172164
9	0x3df92422	0.12165095
10	0xbf0b3bdb	-0.5438821
11	0xbb96d3e4	-0.004602896
12	0x3eccf29c	0.40028846
13	0x3e6589ab	0.22415797
14	0xbeefeaf1	-0.46858934
15	0xbe433e01	-0.19066621
16	0xbdb41a94	-0.08794132
17	0xbe43ba61	-0.19114067
18	0x3e98d61c	0.29850852
19	0x3f3754cd	0.7161377
20	0xbee56ca8	-0.4480946
21	0x3ecbd0e8	0.3980782
22	0x3ec15542	0.3776036
23	0x3e0cadd3	0.13738184
24	0x3d535b60	0.051600814
25	0x3d421b5a	0.047389366
26	0x3de4df00	0.111753464
27	0xbdf97c55	-0.121819176
28	0xbf1fff79	-0.62499195
29	0xbd3a2bc0	-0.04545188
30	0xbc0539ec	-0.008131485
31	0x3e53123c	0.20612425
32	0x3eb201e8	0.3476708
33	0xbf514911	-0.81752115
34	0xbf1dbf87	-0.6162037
35	0xbeacb89e	-0.33734602
36	0x3ed358ac	0.4127859
37	0xbdf3686c	-0.11885151
38	0xbeb569a3	-0.35432157
39	0xbf016a94	-0.5055325
40	0xbf02beff	-0.51072687
41	0x3e89436e	0.26809257
42	0xbea7abfe	-0.32748407
43	0xbd5ba992	-0.05362851
44	0xbe49057a	-0.19630995
45	0xbe0ae9f7	-0.13565813
46	0x3f5dd376	0.8665079
47	0x3dddde86	0.108334586
48	0xbe52c85c	-0.20584244
49	0xbee6e6a0	-0.45097828
50	0xbdabc550	-0.08387244
51	0x3d36b624	0.044607297
52	0x3ec93ed6	0.39305753
53	0x3ebb43f9	0.36575297
54	0x3ea45292	0.32094246
55	0x3ec05f6c	0.375728
56	0xbcc84478	-0.024446711
57	0x3e5052fb	0.20344155
58	0xbf866fd2	-1.0502875
59	0x3f36e467	0.71442264
60	0x3ed4dca0	0.41574574
61	0x3e929628	0.28630185
62	0xbf0ace30	-0.5422087
63	0x3d45ebf0	0.04832071

arith.constant8 f4 [64]
0	0xbefc251a	-0.49247056
1	0x3c78ec30	0.01519303
2	0xbef08712	-0.4697805
3	0xbd6593bc	-0.056049094
4	0xbe7befda	-0.24603215
5	0xbefca253	-0.49342594
6	0xbe11a08f	-0.14221404
7	0xbe84d76e	-0.2594561
8	0xbf255ef8	-0.64598036
9	0xbe3903b8	-0.18067825
10	0xbd92d7ec	-0.0717009
11	0xbd845991	-0.06462396
12	0xbe800fcd	-0.25012055
13	0xbea65c7c	-0.32492435
14	0x3dd7dd13	0.105402134
15	0x3f3814a6	0.71906507
16	0xbf1f7fcb	-0.6230437
17	0x3ea0c1ec	0.3139795
18	0x3da7257f	0.08161449
19	0x3ef14843	0.47125444
20	0x3ef5e069	0.48022774
21	0xbeb06123	-0.3444911
22	0x3e005afa	0.12534705
23	0xbd823026	-0.0635684
24	0x3ea5ff15	0.32421175
25	0xbf04fa05	-0.51944
26	0x3e15a18a	0.14612404
27	0x3e75287e	0.23941228
28	0xbeb951ee	-0.3619532
29	0xbd115291	-0.035479132
30	0x3eacbc88	0.33737588
31	0xbcddc2b8	-0.027070388
32	0x3f0999d5	0.53750354
33	0x3c3bed3c	0.011470135
34	0xbe11d32c	-0.14240712
35	0xbf9c5c04	-1.2215581
36	0x3f00ba22	0.50284016
37	0xbf1db0b0	-0.6159773
38	0x3e56d272	0.20978716
39	0x3f44ece9	0.76923996
40	0xbd096dca	-0.03355197
41	0xbe1fd1c4	-0.15607363
42	0xbf2b5262	-0.6692258
43	0xbea44354	-0.32082617
44	0x3f12f62e	0.5740689
45	0x3f0366a9	0.5132852
46	0xbf05e656	-0.5230459
47	0x3df99369	0.121863194
48	0xbf2e3c48	-0.6806073
49	0x3d6b3fb0	0.057433784
50	0x3da97fa4	0.08276299
51	0x3d9d0731	0.07667387
52	0x3f32c4a8	0.69831324
53	0xbf33da16	-0.7025465
54	0x3f5443e6	0.82916105
55	0xbef69762	-0.4816237
56	0xbec210aa	-0.3790334
57	0x3ee7406e	0.45166343
58	0x3d8b3509	0.06797225
59	0x3ea0cfb5	0.31408468
60	0xbea8d85b	-0.32977566
61	0xbf05baf9	-0.5223842
62	0xbe416314	-0.18885452
63	0x3e3f100a	0.18658462

arith.constant9 f4 [64]
0	0x3f385775	0.7200845
1	0xbd962843	-0.07331898
2	0xbefcd0d0	-0.4937806
3	0xbe594543	-0.21217827
4	0x3e4b1523	0.19832282
5	0xbe6a41e0	-0.22876692
6	0xbf2d7b32	-0.67766106
7	0x3f1137a1	0.5672551
8	0xbf025d7c	-0.50923896
9	0x3e9edcac	0.31027734
10	0x3f16a64a	0.58847487
11	0xbef427ea	-0.47686702
12	0xbf4076cc	-0.7518127
13	0xbefd738d	-0.4950222
14	0xbdf41d30	-0.119196296
15	0xbed58a1f	-0.4170694
16	0xbead4204	-0.33839428
17	0x3f7d7b87	0.9901661
18	0x3e945faf	0.2897925
19	0xbe25cdbe	-0.16191766
20	0xbec1251e	-0.3772363
21	0x3ed2f115	0.41199556
22	0x3f3e84d0	0.74421406
23	0x3c3bfea8	0.011474289
24	0xbe0fa134	-0.14026338
25	0xbe96bbf6	-0.29440278
26	0x3e8fbae1	0.28072265
27	0x3f1c657b	0.61092347
28	0xbdb931cf	-0.09042703
29	0xbed03760	-0.40667248
30	0x3d0a7c2a	0.03380982
31	0xbf28c813	-0.6593029
32	0x3eca261f	0.3948221
33	0x3ed75af7	0.42061588
34	0xbdf30c46	-0.11867575
35	0xbf1af7d8	-0.6053443
36	0x3f6209fe	0.88296497
37	0xbf2ad6b2	-0.6673385
38	0x3f43e5b3	0.7652237
39	0xbd785ed4	-0.06063731
40	0xbd292d8c	-0.041303203
41	0x3ed155c6	0.40885752
42	0xbdea5173	-0.114413165
43	0xbf888a6b	-1.0667242
44	0x3eaffab4	0.3437096
45	0xbdce8e73	-0.10085764
46	0xbe3b00e2	-0.18262056
47	0xbf0f837a	-0.5605999
48	0xbefa0eb7	-0.48839352
49	0x3d6b6d92	0.05747754
50	0xbebe9d2e	-0.37229294
51	0xbb2611e0	-0.0025340244
52	0x3edb6e8a	0.42857772
53	0xbf32b111	-0.6980143
54	0x3d583660	0.05278623
55	0xbeb1290c	-0.3460163
56	0x3f9dd754	1.2331338
57	0x3e467c8b	0.19383447
58	0xbf19011a	-0.59767306
59	0x3ebf4c86	0.3736307
60	0xbeaca40e	-0.33718914
61	0xbf03b195	-0.51442844
62	0x3f6f5416	0.9348768
63	0xbc92eecc	-0.017936133

arith.constant10 f4 [64]
0	0xbec46338	-0.38356948
1	0xbe31d520	-0.17366457
2	0xbd922f47	-0.07137924
3	0x3df5b914	0.119981915
4	0xbed19853	-0.40936527
5	0x3f47cf41	0.7805062
6	0x3f3d712a	0.740008
7	0xbee5ba50	-0.44868708
8	0xbea1b487	-0.31583044
9	0x3f35ceef	0.7101888
10	0x3e098794	0.13430625
11	0x3d0453e2	0.03230656
12	0xbe886976	-0.2664296
13	0xbf32205f	-0.69580644
14	0x3e36809d	0.178225
15	0xbe487e53	-0.19579439
16	0xbea06574	-0.31327403
17	0x3f408e44	0.7521708
18	0xbd78449e	-0.060612313
19	0x3d102c18	0.0351983
20	0x3f3c52a5	0.73563606
21	0x3d59515a	0.0530561
22	0x3f0d618b	0.55226964
23	0x3e0233d3	0.12715082
24	0x3eb22ae2	0.34798342
25	0xbef538f6	-0.4789502
26	0xbe13d24d	-0.14435692
27	0x3f1a7f44	0.6035044
28	0x3f4c1164	0.79714036
29	0x3df6f013	0.12057509
30	0xbd89ea7f	-0.0673418
31	0xbf2a3b66	-0.66496885
32	0xbed64dc2	-0.418562
33	0xbd318360	-0.04333818
34	0xbf12c962	-0.57338536
35	0xbead4f8a	-0.33849746
36	0x3fc30380	1.5235443
37	0x3e186512	0.14882305
38	0x3ed6e5c8	0.41972184
39	0x3f038c6b	0.51386136
40	0x3e3011eb	0.17194335
41	0x3ca27c08	0.019834533
42	0xbf4010a3	-0.75025386
43	0xbe6dabca	-0.23210064
44	0xbd590bb1	-0.052989665
45	0xbf0cbc71	-0.5497504
46	0x3d6b7661	0.05748594
47	0xbdb39530	-0.0876869
48	0x3f2482cc	0.6426208
49	0xbd8ab24e	-0.0677229
50	0x3df11682	0.11771871
51	0x3e4b09fc	0.19828027
52	0x3e32fd54	0.1747945
53	0x3df307e0	0.118667364
54	0x3f587753	0.84557074
55	0x3e9aa620	0.30204868
56	0x3f748816	0.9552015
57	0xbef432eb	-0.47695097
58	0x3f0280f0	0.50977993
59	0x3ee158fe	0.44013208
60	0xbefa722e	-0.48915237
61	0x3e83555d	0.25651065
62	0x3f1f2963	0.62172526
63	0xbec54b6d	-0.38534108

arith.constant11 f4 [64]
0	0x3ed45a01	0.41474918
1	0xbf390f91	-0.7228938
2	0x3f7b0a28	0.9806237
3	0xbe5cd194	-0.21564323
4	0x3e194f3d	0.14971633
5	0x3e0501fb	0.12989037
6	0x3f555fea	0.8334948
7	0xbe92929a	-0.28627473
8	0x3ed0c574	0.40775645
9	0x3f10e33a	0.5659672
10	0xbebceb86	-0.3689844
11	0x3d5b7566	0.053578757
12	0x3e6c95ce	0.23104021
13	0x3e961736	0.29314584
14	0x3e8b810a	0.27246886
15	0xbef89067	-0.4854767
16	0x3ec59afe	0.38594812
17	0xbf37a2b5	-0.71732646
18	0x3ea717ce	0.3263535
19	0x3f187f96	0.5956968
20	0x3f71d776	0.9446939
21	0xbf023d3c	-0.50874686
22	0xbe61ce86	-0.22051439
23	0x3f46a94d	0.7760208
24	0xbee98232	-0.45607144
25	0xbdd1b5e2	-0.102397695
26	0xbea24218	-0.3169105
27	0xbf60e082	-0.8784257
28	0xbf2e0d23	-0.67988795
29	0x3db1e6b3	0.086865805
30	0x3f3fe739	0.7496219
31	0x3f0b5095	0.54419833
32	0xbe8a39a5	-0.26997104
33	0x3c148bd0	0.009066537
34	0xbf3ee021	-0.74560744
35	0xbf149c9c	-0.58051467
36	0x3df43ef6	0.11926071
37	0x3ece3077	0.4027135
38	0xbebb055f	-0.36527535
39	0xbe0d3ba2	-0.1379228
40	0xbf0f210b	-0.55909795
41	0x3f57f811	0.84362894
42	0x3efd776d	0.49505177
43	0xbf0383e7	-0.5137314
44	0x3f19cf94	0.60082364
45	0x3d98daf4	0.07463637
46	0x3e621b81	0.22080804
47	0x3dc3e378	0.095648706
48	0x3f283766	0.6570953
49	0x3e0cdecc	0.13756865
50	0xbe3862fd	-0.18006511
51	0xbf3156c6	-0.6927303
52	0x3debd33c	0.11514899
53	0x3eac2e30	0.33628988
54	0x3f0047ee	0.50109756
55	0x3e1cc9dd	0.1531138
56	0xba53cb00	-0.00080792606
57	0x3e9385ce	0.28813022
58	0x3e932eab	0.28746542
59	0x3f1cebec	0.6129749
60	0x3f0f23d0	0.5591402
61	0x3e88422e	0.2661299
62	0x3ead9d6f	0.33909175
63	0x3c213d52	0.00984128

arith.constant12 f4 [64]
0	0xbe171a6e	-0.14756176
1	0x3ee820c3	0.45337495
2	0x3e4761ed	0.1947095
3	0xbe2ede51	-0.17076994
4	0xbef0585a	-0.46942407
5	0xbeecd109	-0.4625323
6	0x3e0b1dea	0.1358563
7	0xbe944732	-0.28960568
8	0x3efb58c0	0.49091148
9	0xbf094149	-0.5361524
10	0x3e194850	0.14968991
11	0x3eca7225	0.3954021
12	0x3e706952	0.23477677
13	0x3e9c5ed0	0.30541086
14	0xbf83e248	-1.030343
15	0xbed1dd29	-0.40989044
16	0xbe52e901	-0.20596696
17	0xbe0b3b61	-0.1359687
18	0xbe67c7b8	-0.2263478
19	0x3ec82a21	0.39094642
20	0x3e10fbaf	0.1415851
21	0xbe64154c	-0.22273749
22	0xbec8c8f8	-0.39215827
23	0xbe41fd0c	-0.18944186
24	0x3efcaef2	0.49352223
25	0xbf1d78e3	-0.61512583
26	0xbf0b6ef4	-0.54466176
27	0xbdf54705	-0.119764365
28	0x3e59f7fe	0.21286008
29	0xbe5009b2	-0.20316198
30	0xbdec6fb9	-0.11544747
31	0x3f170db0	0.5900526
32	0x3ec3a49f	0.38211533
33	0x3f56717e	0.83766925
34	0xbf0d2524	-0.551348
35	0xbe01e6dd	-0.12685724
36	0x3f769ef4	0.96336293
37	0xbd97db70	-0.07414901
38	0xbf3a82f8	-0.7285609
39	0x3e83de2c	0.2575544
40	0x3f68f1fb	0.9099423
41	0x3f1dcafc	0.61637855
42	0x3ddcf1eb	0.1078833
43	0xbf1dfc00	-0.61712646
44	0x3e13f807	0.14450084
45	0xbf32b305	-0.6980441
46	0xbe99216e	-0.29908317
47	0x3e157d16	0.14598498
48	0xbf1fea3b	-0.6246678
49	0xbe0211a7	-0.12702046
50	0xbe986597	-0.29765007
51	0x3e5a70a1	0.21332027
52	0xbdc681a2	-0.09692694
53	0x3ed6cc2d	0.4195265
54	0x3f2f8a04	0.6856997
55	0xbd985220	-0.07437539
56	0x3de9f878	0.11424345
57	0xbe0883bc	-0.13331503
58	0x3ec5f4e6	0.38663405
59	0xbd1e8a86	-0.038706325
60	0xbda29b94	-0.079398304
61	0x3e7f936c	0.2495858
62	0x3ee669e1	0.45002654
63	0xbf14780e	-0.5799569

arith.constant13 f4 [64]
0	0x3e0d275e	0.13784549
1	0xbf72c625	-0.94833595
2	0xbf322d20	-0.69600105
3	0xbedbc3fe	-0.42922968
4	0x3c9277f0	0.017879456
5	0xbf0d0be6	-0.5509628
6	0x3e376ce3	0.1791263
7	0xbdb1999d	-0.086718775
8	0xbf55f12e	-0.83571136
9	0x3cc44b7c	0.023961775
10	0x3e0ca9a8	0.13736594
11	0xbe252281	-0.16126443
12	0xbed8d4a0	-0.4234972
13	0xbf39ae0f	-0.7253122
14	0x3e067b64	0.13133007
15	0x3d1a5008	0.03767398
16	0xbdbc89a1	-0.09205938
17	0x3d9727c0	0.073806286
18	0x3ef3c78e	0.47613186
19	0xbeeae95a	-0.45881158
20	0xbf12b888	-0.5731282
21	0x3de5feb2	0.1123022
22	0x3e53d6ce	0.2068741
23	0x3ec79ff7	0.3898923
24	0xbf17827a	-0.59183466
25	0xbcf707c8	-0.030155078
26	0xbf16cafb	-0.58903474
27	0xbe9c4c26	-0.30526847
28	0x3f3a21d4	0.7270787
29	0xbe6c9664	-0.23104244
30	0x3ec36e82	0.38170248
31	0xbf627301	-0.8845673
32	0xbeeff3d6	-0.4686572
33	0xbeddc337	-0.43313
34	0x3ea927ce	0.3303818
35	0xbdc589a2	-0.09645392
36	0xbed63a20	-0.4184122
37	0xbf59067e	-0.8477553
38	0xbd0feb50	-0.03513652
39	0x3e7657a8	0.24056876
40	0x3ec58482	0.38577658
41	0xbf1df20c	-0.6169746
42	0xbecada04	-0.39619458
43	0x3e922631	0.28544763
44	0xbde37592	-0.11106409
45	0x3e4a35fc	0.19747156
46	0x3ec94069	0.39306954
47	0x3ed2e0ae	0.41187042
48	0xbf2a63e6	-0.6655868
49	0xbeeffe29	-0.46873596
50	0xbe6aa842	-0.22915748
51	0xbefc97f1	-0.49334672
52	0x3ed6e56b	0.41971907
53	0x3f55d3a2	0.8352605
54	0xbe456228	-0.19275725
55	0x3ea45208	0.32093835
56	0x3e1420b2	0.14465597
57	0xbd8169d6	-0.06319015
58	0xbe0294ab	-0.12752025
59	0xbe1efdd8	-0.15526521
60	0x3f07c022	0.53027546
61	0xbf01cf37	-0.5070681
62	0xbe94176f	-0.28924128
63	0xbefe1828	-0.49627805

arith.constant14 f4 [64]
0	0x3d650df0	0.055921495
1	0x3d27cec4	0.04096867
2	0xbe8abf56	-0.27099103
3	0xbe660173	-0.2246149
4	0xbf33452e	-0.70027435
5	0x3cbb6998	0.0228775
6	0xbc0080f0	-0.007843241
7	0x3e40698a	0.1879026
8	0xbed2796c	-0.41108263
9	0xbebe464e	-0.37163013
10	0x3de07844	0.10960439
11	0xbe9cfbe4	-0.30660927
12	0xbec7d980	-0.39033127
13	0xbf0d20dd	-0.5512827
14	0xbf64c8e0	-0.8936901
15	0xbf2c8c8d	-0.67401963
16	0xbf259cf6	-0.6469263
17	0xbe9a68f8	-0.3015821
18	0xbe944330	-0.2895751
19	0xbc8b0838	-0.016971692
20	0xbe90aec9	-0.2825835
21	0xbbde2c50	-0.006780185
22	0xbfbc5282	-1.4712679
23	0xbda96c22	-0.08272578
24	0xbe502952	-0.20328262
25	0xbd98f802	-0.07469179
26	0x3e8bf9f3	0.27339134
27	0x3d97fd00	0.07421303
28	0xbf75ff37	-0.9609255
29	0xbf18a129	-0.5962091
30	0xbf16644a	-0.5874678
31	0xbed63e8a	-0.4184459
32	0xbf7ce57c	-0.98787665
33	0xbe422767	-0.18960343
34	0xbe98f0b8	-0.29871154
35	0x3db171da	0.086642936
36	0xbd9c8bba	-0.07643838
37	0x3e81dae8	0.25362325
38	0xbea2be94	-0.31786025
39	0xbe460460	-0.19337606
40	0xbef31f01	-0.47484592
41	0x3f15f096	0.5857023
42	0xbd1fb2a4	-0.038988724
43	0xbf8f80cc	-1.1211181
44	0xbca2a8b4	-0.019855835
45	0xbed143d6	-0.40872067
46	0xbf3954ea	-0.72395194
47	0xbf2b3162	-0.6687223
48	0x3e20b7e6	0.15695152
49	0x3c79fd90	0.015258208
50	0xbf2cccd2	-0.6750003
51	0x3e8338a0	0.2562914
52	0xbd8b5d34	-0.068048865
53	0xbf2292bf	-0.63505167
54	0xbf0937d2	-0.536008
55	0xbf94a1ec	-1.1611915
56	0xbed65da0	-0.41868305
57	0x3d40ccb8	0.047070235
58	0xbe0b33da	-0.13593999
59	0x3d21b710	0.039481223
60	0x3ec34ff4	0.38146937
61	0xbdeccca8	-0.115624726
62	0xbe466b36	-0.19376835
63	0x3e9d7d13	0.30759487

arith.constant15 f4 [192]
0	0x3bf9ee00	0.0076272488
1	0xbf250df5	-0.6447442
2	0xbed3b485	-0.41348663
3	0x3ec445b7	0.38334438
4	0xbee83217	-0.45350716
5	0xbe80ee9b	-0.25182042
6	0x3d1f1d70	0.038846433
7	0xbec9f28b	-0.39442858
8	0xbe141325	-0.14460428
9	0xbe1b4736	-0.15163884
10	0xbcf0dec8	-0.029403105
11	0x3f14d085	0.58130676
12	0x3f6b8b03	0.9200899
13	0xbe051636	-0.12996754
14	0x3e7acb45	0.24491604
15	0x3eb3fb4c	0.35152662
16	0x3e06ef55	0.13177235
17	0xbe817f1b	-0.25292286
18	0xbf566f14	-0.8376324
19	0xbe0c87cf	-0.13723682
20	0xbefeb2f8	-0.49745917
21	0xbf240708	-0.6407323
22	0xbf01592c	-0.5052669
23	0xbebf7f02	-0.37401587
24	0xbf44189b	-0.76600045
25	0xbd0ec88f	-0.034859236
26	0xbe1c5940	-0.15268421
27	0xbc22d5a0	-0.0099386275
28	0xbe36cbd2	-0.17851189
29	0xbe1d6cc4	-0.15373522
30	0xbf19b154	-0.60036206
31	0x3f13c0e0	0.5771618
32	0x3df52624	0.11970165
33	0x3ef1d5dd	0.47233477
34	0xbe64a214	-0.22327453
35	0xbefa9332	-0.48940426
36	0x3f21104a	0.6291548
37	0x3f03af00	0.51438904
38	0x3e0f7a00	0.14011383
39	0xbeb9a59e	-0.36259168
40	0x3da79e96	0.08184545
41	0xbe359f48	-0.17736542
42	0x3f9427d2	1.1574652
43	0x3ede6058	0.4343288
44	0x3ea607ce	0.3242783
45	0x3f45c15f	0.77248186
46	0x3e8351a8	0.25648236
47	0xbebe6b0b	-0.37191042
48	0xbf66fa5c	-0.9022577
49	0xbe8b4528	-0.272012
50	0xbd8c2c4a	-0.06844385
51	0x3f5415c0	0.8284569
52	0xbf1fd0b6	-0.6242784
53	0xbec04cb9	-0.37558535
54	0xbf1e3e14	-0.61813474
55	0x3f7460ce	0.9546021
56	0xbf874d13	-1.0570396
57	0x3f4c8657	0.79892486
58	0xbf6b155a	-0.91829455
59	0xbea30f13	-0.31847438
60	0xbf16f42d	-0.5896633
61	0xbf23ce49	-0.6398664
62	0xbdb7fcad	-0.08983741
63	0xbeeb1158	-0.4591167
64	0xbf2f366d	-0.6844242
65	0xbf60d0a4	-0.8781836
66	0xbf2539c2	-0.64541256
67	0xbd8e207c	-0.0693979
68	0x3f6dd411	0.9290171
69	0xbecee490	-0.40408754
70	0xbf262457	-0.648992
71	0xbec08331	-0.3760009
72	0xbe5c8f5e	-0.21539065
73	0xbf16c59f	-0.58895296
74	0xbe604158	-0.21899927
75	0xbf8a3bbf	-1.0799483
76	0x3ed3bd9c	0.41355598
77	0xbe305a3d	-0.17221923
78	0x3e1a93f0	0.15095496
79	0xbf0a0272	-0.5390998
80	0x3ea2c724	0.31792557
81	0xbea97466	-0.33096617
82	0x3ef1fe40	0.4726429
83	0x3f62e8d5	0.88636523
84	0x3eda5f68	0.42650914
85	0xbf1006ae	-0.5626019
86	0x3ec45216	0.38343877
87	0xbe670eb0	-0.22564197
88	0xbf13aa43	-0.57681674
89	0x3d3abc2d	0.045589615
90	0x3f2db672	0.67856514
91	0x3e54e1f0	0.20789313
92	0xbe8871f7	-0.26649448
93	0x3e0ab7f8	0.13546741
94	0x3ec0ea02	0.37678534
95	0xbe529665	-0.20565183
96	0xbe1fd888	-0.15609944
97	0x3ef6879c	0.48150337
98	0x3f1df218	0.6169753
99	0xbea57b4e	-0.32320637
100	0xbd9efcc0	-0.07763052
101	0x3f3b7f92	0.7324153
102	0xbe093544	-0.13399225
103	0xbe24d0d6	-0.1609529
104	0x3eccd10c	0.4000324
105	0x3eed37ff	0.46331784
106	0xbf1e1b2f	-0.6176023
107	0xbea778a2	-0.32709223
108	0xbf472d9e	-0.7780398
109	0x3e837050	0.25671625
110	0x3f325a15	0.69668704
111	0xbe234ea6	-0.15947971
112	0x3ed0a7e6	0.40753096
113	0xbdbd627e	-0.092473015
114	0x3e41b01c	0.18914837
115	0xbe960368	-0.29299474
116	0xbdb69811	-0.08915723
117	0x3f1255fe	0.57162464
118	0xbe33722e	-0.17524025
119	0xbe92fba8	-0.28707623
120	0xbf3a304e	-0.7272996
121	0x3ea329b0	0.31867743
122	0xbf2a8aad	-0.6661785
123	0xbedc9f0a	-0.43090087
124	0xbba4ea28	-0.0050327964
125	0xbe732cf4	-0.23747617
126	0x3f2d6d25	0.67744666
127	0x3ed603b0	0.41799688
128	0xbebeabe2	-0.3724051
129	0xbf1ddc7a	-0.61664546
130	0xbf46baa9	-0.7762857
131	0x3f278c2e	0.6544827
132	0x3e92ee90	0.28697634
133	0xbf1fb57c	-0.623863
134	0xbe056cab	-0.13029735
135	0x3f0c9fd2	0.54931366
136	0xbefc5beb	-0.49288878
137	0xbe56db11	-0.20982005
138	0xbdedd9b9	-0.11613793
139	0xbe9f59b3	-0.31123123
140	0xbe550ea4	-0.20806366
141	0xbf742a7e	-0.9537734
142	0xbdcb6628	-0.09931594
143	0x3ed7ffc5	0.42187324
144	0x3ed766b0	0.42070532
145	0x3f3e790c	0.7440345
146	0xbf48f2cb	-0.7849547
147	0xbe9d4148	-0.30713868
148	0xbef32585	-0.47489563
149	0x3f0f1f02	0.5590669
150	0x3ee49a68	0.44649053
151	0xbf62fb14	-0.88664365
152	0x3f741226	0.9534019
153	0xbf14e108	-0.5815587
154	0xbe95ff2b	-0.2929624
155	0xbec13133	-0.3773285
156	0xbea53e3b	-0.3227404
157	0x3f215785	0.6302417
158	0x3e928ebe	0.2862453
159	0xbe9a168f	-0.30095336
160	0x3f3d98c5	0.7406123
161	0xbe8824d3	-0.26590595
162	0x3ea6b488	0.3255961
163	0xbed4470e	-0.4146046
164	0x3f5e8777	0.8692545
165	0x3f1e4f34	0.61839604
166	0x3eb9e3b9	0.3630655
167	0xbf6f9746	-0.935902
168	0x3ea7de14	0.3278662
169	0xbe9ec0a9	-0.31006363
170	0x3f0c8dbb	0.54903764
171	0xbecad626	-0.39616507
172	0x3cd2e1f7	0.025742514
173	0xbee6242c	-0.44949472
174	0x3ebc5654	0.36784613
175	0x3f2c46dc	0.6729562
176	0x3e1218cc	0.14267272
177	0xbe541629	-0.20711578
178	0xbe2cd617	-0.16878544
179	0x3e93654d	0.28788224
180	0xbf0f48b5	-0.5597032
181	0xbee4a32e	-0.44655746
182	0x3f3f8b4c	0.74821925
183	0xbd038042	-0.032104738
184	0xbe872209	-0.26393154
185	0xbec72ee5	-0.38902965
186	0x3f0b0a50	0.5431261
187	0xbf45acb5	-0.77216655
188	0x3f095afb	0.5365445
189	0x3e3f0d8a	0.18657508
190	0xbd85de4e	-0.06536542
191	0x3eafc732	0.3433166

arith.constant16 f4 [192]
0	0x3ed5cc7f	0.4175758
1	0xbf7b3daa	-0.98140967
2	0xbe4b990a	-0.19882599
3	0xbe78b15c	-0.24286407
4	0xbf1afe1c	-0.6054399
5	0xbe016585	-0.12636383
6	0xbecb23f4	-0.39675868
7	0x3ed03b9e	0.40670484
8	0x3d7e3334	0.06206055
9	0xbdad676c	-0.08466992
10	0xbe129284	-0.14313704
11	0xbee4b4f4	-0.44669306
12	0x3f3a1a2e	0.726962
13	0xbf60d627	-0.8782677
14	0xbe34aa19	-0.17643012
15	0xbe09682e	-0.13418648
16	0x3eb295f8	0.34880042
17	0xbf27bb96	-0.6552061
18	0x3f4923ba	0.7857014
19	0x3e7ca124	0.24670845
20	0xbf127b00	-0.57218933
21	0xbf3b58a0	-0.73182106
22	0xbf335e3e	-0.7006568
23	0xbe557ab6	-0.20847592
24	0xbf94b200	-1.1616821
25	0x3eddbf4d	0.43310013
26	0xbea1b797	-0.3158538
27	0x3e2b980f	0.16757225
28	0x3e90ace8	0.28256917
29	0xbed0debb	-0.4079493
30	0x3daa823c	0.083256215
31	0xbe1d574c	-0.15365332
32	0xbebb7c26	-0.36618155
33	0xbed9e1a7	-0.42554972
34	0xbe6e131e	-0.2324948
35	0x3e6e4fa9	0.23272575
36	0xbecae136	-0.39624947
37	0xbf61b87f	-0.88172144
38	0x3ebb2441	0.36551097
39	0xbe9eacde	-0.30991262
40	0x3e6386f4	0.2221945
41	0xbe07279b	-0.13198702
42	0x3f11f817	0.5701918
43	0xbee7fbae	-0.45309204
44	0xbf29f169	-0.6638399
45	0x3f7d6bc2	0.9899255
46	0x3ea8ed12	0.3299337
47	0x3eed9d6a	0.4640916
48	0xbf86cbc3	-1.0530933
49	0xbf3e5ccf	-0.74360365
50	0xbed94da6	-0.42442054
51	0x3ecac1e5	0.39601055
52	0xbeacfcc0	-0.33786583
53	0x3f1901b5	0.5976823
54	0xbe75a828	-0.23989928
55	0x3f031b98	0.5121398
56	0x3f0860b5	0.53272563
57	0xbe13a4f5	-0.14418395
58	0x3efa5ceb	0.48899016
59	0xbde87790	-0.1135093
60	0xbe815f18	-0.25267863
61	0xbee7e7be	-0.45293993
62	0xbdfcd760	-0.12345767
63	0xba507100	-0.00079514086
64	0xbf403ad2	-0.7508975
65	0xbf8d5c73	-1.1043838
66	0xbf62ef50	-0.8864641
67	0xbec5080b	-0.384827
68	0x3f5c3056	0.86011255
69	0x3f693bd0	0.9110689
70	0x3e952e7e	0.29137033
71	0xbe8076cd	-0.25090638
72	0x3eb92e0b	0.3616794
73	0xbf7db435	-0.991031
74	0x3e8f41ee	0.27979988
75	0x3ec38d36	0.38193673
76	0xbf1d393e	-0.6141547
77	0xbe4758ad	-0.19467421
78	0x3d4196ee	0.04726308
79	0xbeb82e3c	-0.35972774
80	0x3e7c8e0e	0.24663565
81	0x3d16e64a	0.036840715
82	0x3f2a1ccf	0.6645021
83	0x3f1fa62b	0.6236293
84	0x3f2c4710	0.6729593
85	0xbf870d1e	-1.0550878
86	0xbf80cff6	-1.0063465
87	0xbead72f0	-0.33876753
88	0xbf4d29bc	-0.80141807
89	0x3f093567	0.5359711
90	0xbf483758	-0.7820945
91	0x3eba8412	0.36428887
92	0x3ccf3efc	0.025298588
93	0x3f49b16d	0.78786355
94	0xbea5c672	-0.32377964
95	0x3e83d697	0.25749657
96	0xbcc07954	-0.023495354
97	0xbe6ddc20	-0.23228502
98	0x3ee3d8d8	0.44501376
99	0xbe02bdb4	-0.12767678
100	0x3ead64ca	0.33865958
101	0xbed98538	-0.4248445
102	0x3e34e026	0.17663631
103	0x3e6ea9d5	0.23306973
104	0x3f0bd9b3	0.5462906
105	0xbeea33fd	-0.4574279
106	0x3edac46a	0.42727977
107	0x3e4a8d18	0.19780385
108	0xbf396016	-0.7241224
109	0x3e5d048f	0.2158377
110	0x3e1d6f7c	0.15374559
111	0xbe7be323	-0.24598365
112	0xbee879b2	-0.45405346
113	0xbe9b6494	-0.30350173
114	0x3dbb29a1	0.091387995
115	0xbf23f710	-0.6404886
116	0x3c9969d0	0.018727213
117	0xbf474eaa	-0.77854407
118	0xbf015e3a	-0.50534403
119	0xbe8a9906	-0.27069873
120	0x3d9b5589	0.07584674
121	0xbe891454	-0.26773322
122	0xbf54d659	-0.8313957
123	0xbe960e4c	-0.29307783
124	0x3e9a950c	0.3019184
125	0xbef60881	-0.48053363
126	0x3f4d846e	0.80280197
127	0x3e06661a	0.13124886
128	0xbeb189bd	-0.34675398
129	0x3ec0b069	0.3763459
130	0xbf8aae3c	-1.0834422
131	0xbf06d5a7	-0.5266976
132	0xbd3aee48	-0.0456374
133	0xbf6db56c	-0.9285495
134	0xbf1b5909	-0.6068273
135	0x3eb17668	0.3466065
136	0x3d87e779	0.06635947
137	0x3e72d163	0.23712687
138	0xbd895b31	-0.067068465
139	0xbe276cd7	-0.16350113
140	0xbd0acda6	-0.033887528
141	0xbf935639	-1.1510688
142	0x3f4f55e3	0.8099043
143	0x3e25d251	0.1619351
144	0xbed388d7	-0.41315338
145	0xbe99b21f	-0.30018708
146	0xbf95a65f	-1.1691397
147	0xbebe1fba	-0.3713358
148	0x3ec2c5a8	0.38041425
149	0xbee8f4a5	-0.4549915
150	0x3edcafde	0.43102926
151	0x3f305fc0	0.688961
152	0x3ec7be42	0.39012343
153	0x3da9b465	0.08286361
154	0xbf14ffa0	-0.5820255
155	0xbeaa330a	-0.33242065
156	0x3ead2875	0.3381993
157	0x3f198405	0.5996707
158	0xbf132ae5	-0.57487327
159	0x3e9fa125	0.3117763
160	0x3eff71cd	0.4989151
161	0x3f338a6a	0.7013308
162	0xbea370da	-0.31922036
163	0xbe24987c	-0.16073793
164	0x3f4d00ed	0.8007954
165	0xbe669f43	-0.22521691
166	0xbf3b41a0	-0.7314701
167	0x3f149184	0.5803454
168	0xbea5eeee	-0.3240885
169	0xbf445dad	-0.7670544
170	0xbee632d7	-0.44960663
171	0x3d34620a	0.04403881
172	0xbec55380	-0.38540268
173	0xbf0d6876	-0.5523752
174	0xbebcfd15	-0.36911836
175	0xbf097224	-0.5368979
176	0xbedb9501	-0.42887118
177	0x3f0f1024	0.55884004
178	0x3c4c66c0	0.012475669
179	0x3f09b981	0.5379868
180	0xbf5578d6	-0.83387506
181	0xbea2c4c5	-0.31790748
182	0x3f37ee34	0.71847844
183	0xbefbf60e	-0.49211162
184	0x3ed87bbe	0.42281908
185	0xbe85fd85	-0.26169983
186	0xbf284400	-0.6572876
187	0xbf928867	-1.1447877
188	0xbf032acd	-0.51237184
189	0xbf1f4e6f	-0.62229055
190	0xbdc79e20	-0.09746957
191	0xbf397328	-0.7244134

arith.constant17 f4 [192]
0	0x3f045a03	0.51699847
1	0xbe9dffd1	-0.30859235
2	0x3dad6444	0.0846639
3	0x3ed1983a	0.40936452
4	0xbe8ee55a	-0.27909356
5	0xbd2682bc	-0.04065202
6	0xbe540ad5	-0.20707257
7	0x3aa14000	0.0012302399
8	0xbdeee1a3	-0.116641305
9	0x3d61fbe0	0.055171847
10	0xbf0c0a07	-0.547028
11	0xbf578219	-0.8418289
12	0x3ed23d74	0.4106251
13	0xbef5e695	-0.48027483
14	0x3e8c81a5	0.2744266
15	0xbe99b42b	-0.3002027
16	0x3e3d4bb3	0.18485908
17	0xbf24418a	-0.64162505
18	0x3d810ea0	0.063016176
19	0xbd83c1c6	-0.06433444
20	0x3eaba7f9	0.3352659
21	0xbee7907e	-0.45227426
22	0x3fca365b	1.5797838
23	0xbf2acfc5	-0.6672328
24	0xbea2ce6e	-0.31798118
25	0x3e34d011	0.17657496
26	0xbefeedb2	-0.49790722
27	0xbed7efd0	-0.4217515
28	0xbf27bc83	-0.6552202
29	0x3eb16e92	0.3465467
30	0xbe91a9b6	-0.28449792
31	0xbe8fae08	-0.28062463
32	0x3f313f46	0.6923717
33	0xbef430f8	-0.4769361
34	0xbed2f12c	-0.41199625
35	0xbe81a394	-0.25320113
36	0xbe060ce4	-0.13090855
37	0xbebf068c	-0.37309682
38	0x3ec0ac07	0.37631246
39	0x3f3f0b91	0.74627024
40	0xbec372ea	-0.3817361
41	0x3f03e85e	0.5152644
42	0xbeff090a	-0.49811584
43	0x3f2f1f50	0.68407154
44	0x3ee05c82	0.43820578
45	0xbeb3aa36	-0.35090798
46	0x3f68f042	0.90991604
47	0x3e93b434	0.28848422
48	0x3f4ba8a7	0.7955422
49	0xbe872396	-0.26394337
50	0x3eb0b400	0.3451233
51	0x3e0d0b58	0.13773859
52	0xbea49320	-0.32143497
53	0xbee47468	-0.4462006
54	0x3d9b4c95	0.07582966
55	0xbe58ebd2	-0.21183708
56	0xbe3ca2ae	-0.18421432
57	0xbdebb66a	-0.11509402
58	0xbea92c1d	-0.33041468
59	0x3f31d28a	0.6946188
60	0xbf1c8abe	-0.61149204
61	0x3ecc9877	0.3996007
62	0xbeae6068	-0.34057927
63	0x3f54f6bc	0.83188987
64	0x3e019d7e	0.12657735
65	0x3eeee362	0.46657854
66	0xbf3d56b1	-0.73960406
67	0xbe9799ef	-0.2960963
68	0xbdab3216	-0.083591625
69	0xbf0b8fc4	-0.54516244
70	0xbec4c58f	-0.38431975
71	0xbe19bafb	-0.15012734
72	0x3d50377c	0.050834164
73	0xbdbd6786	-0.09248261
74	0xbee2588d	-0.44208184
75	0xbef03e3a	-0.46922475
76	0x3e920e19	0.2852638
77	0xbf55c358	-0.83501196
78	0x3e537bdb	0.20652716
79	0xbecd893f	-0.40143773
80	0xbf075ecc	-0.52879024
81	0xbe41fdbb	-0.18944447
82	0xbe21cf9c	-0.15801853
83	0x3f5e2db7	0.86788505
84	0x3f1b29d8	0.60610723
85	0xbe24b2bc	-0.16083807
86	0xbe8603b5	-0.26174703
87	0x3ecace22	0.39610392
88	0xbeb6753a	-0.35636312
89	0xbee3adc0	-0.44468498
90	0x3f65378e	0.89537895
91	0xbdc6b18e	-0.097018346
92	0x3f10c8c3	0.5655634
93	0xbf6a250b	-0.91462773
94	0xbdf19939	-0.11796803
95	0x3f683159	0.907003
96	0x3e73303e	0.23748872
97	0xbf16a6d9	-0.5884834
98	0x3eb1cde7	0.34727404
99	0xbe2cfbd3	-0.16892938
100	0xbee52f6e	-0.44762748
101	0x3d05ffee	0.032714777
102	0x3dd7b858	0.10533208
103	0x3e9ee60a	0.3103488
104	0xbe477373	-0.19477634
105	0x3f4cdd08	0.80024767
106	0x3f4da52b	0.8033015
107	0xbdf578ed	-0.119859554
108	0x3f3db683	0.74106616
109	0x3bd5aea0	0.006521061
110	0x3c0402d8	0.008057319
111	0x3da7c85a	0.08192511
112	0xbe4c6b8e	-0.19962904
113	0xbed5b474	-0.41739237
114	0xbf1fa5b1	-0.623622
115	0x3e39d86c	0.18148965
116	0xbecd39bf	-0.4008312
117	0xbe117e34	-0.14208299
118	0x3f6d7a20	0.9276447
119	0x3f294eb2	0.66135705
120	0x3eda9d41	0.426981
121	0x3f546f2f	0.8298215
122	0xbec0df76	-0.37670487
123	0xbd33c382	-0.043887623
124	0xbd7bd737	-0.06148454
125	0xbe9bdb4f	-0.30440757
126	0x3f0bfafc	0.54679847
127	0xbe96706b	-0.29382643
128	0x3d9381ee	0.072025165
129	0x3e55fdc5	0.20897587
130	0xbd221861	-0.03957403
131	0x3f42e847	0.7613568
132	0xbddf65d3	-0.10908093
133	0xbe7098dd	-0.23495813
134	0x3eb227b4	0.34795916
135	0x3eede6c4	0.46465123
136	0xbddd43ee	-0.10803972
137	0x3f9f6161	1.2451593
138	0xbed09704	-0.40740216
139	0xbca76270	-0.02043268
140	0xbe9ea05a	-0.30981714
141	0xbebb4577	-0.36576435
142	0x3f297926	0.6620048
143	0x3efda080	0.49536514
144	0xbe81537c	-0.25259006
145	0xbe27c4d7	-0.16383682
146	0xbdabebba	-0.08394571
147	0xbceb0736	-0.028689962
148	0xbb9d1a20	-0.004794374
149	0xbd8886ea	-0.06666358
150	0x3f325e38	0.69675016
151	0x3f2398d4	0.6390507
152	0xbe28d48d	-0.16487332
153	0xbf514648	-0.81747866
154	0xbeb4a719	-0.35283735
155	0xbe164904	-0.14676291
156	0x3ed3bc81	0.41354755
157	0x3e20b45e	0.15693805
158	0xbdd39a84	-0.10332206
159	0x3e03d5e3	0.1287456
160	0xbe372484	-0.17885023
161	0xbed31377	-0.41225788
162	0x3f030286	0.51175725
163	0x3e8a88ae	0.27057403
164	0x3f27c9e8	0.6554246
165	0x3f553d80	0.83296967
166	0x3ee54b5d	0.4478406
167	0xbf0d27e3	-0.5513899
168	0x3f82df2b	1.0224355
169	0x3f4fab56	0.8112081
170	0xbf2546ea	-0.6456133
171	0x3f443c53	0.7665455
172	0xbe1adad7	-0.15122543
173	0x3e80c4a6	0.2515003
174	0xbde01080	-0.10940647
175	0x3f6920f2	0.91065896
176	0x3ee83a6c	0.45357072
177	0xbe2ee83f	-0.17080782
178	0xbe3743d0	-0.17896962
179	0x3d622c00	0.055217743
180	0x3f1d4494	0.61432767
181	0x3f04dddd	0.51901037
182	0xbd5bf26d	-0.053697992
183	0x3bdc5900	0.006724477
184	0xbf11be66	-0.5693115
185	0x3fa66a89	1.3001262
186	0x3eae2e66	0.34019774
187	0xbe3cdfe6	-0.18444785
188	0xbde91806	-0.11381535
189	0xbecc8069	-0.3994172
190	0x3f3ea702	0.74473584
191	0xbedcb306	-0.43105334

arith.constant18 f4 [192]
0	0xbedc0b9f	-0.42977616
1	0x3f391074	0.7229073
2	0xbe6f2bf3	-0.23356609
3	0xb98b8200	-0.00026609004
4	0xbf3834ab	-0.71955365
5	0x3f31e9ac	0.6949718
6	0xbea9f220	-0.3319254
7	0x3f146fc3	0.57983035
8	0x3e58f5b0	0.21187472
9	0x3e82bfe1	0.25537017
10	0x3f0635bd	0.5242575
11	0x3f6447db	0.8917214
12	0xbf11147a	-0.5667187
13	0xbe33c4f0	-0.17555594
14	0xbdbd6542	-0.09247829
15	0xbe8119ec	-0.2521509
16	0xbd880dbc	-0.066432446
17	0xbe5f5a74	-0.21811849
18	0xbd9ca8da	-0.076493934
19	0xbe839606	-0.25700396
20	0xbf2da0d7	-0.6782355
21	0xbe2f2e48	-0.17107499
22	0x3f25f17b	0.64821595
23	0x3f5965c7	0.84920925
24	0xbc08e014	-0.008354206
25	0x3f05ce5f	0.5226802
26	0xbe1628f3	-0.14664058
27	0xbf0e193c	-0.55507255
28	0xbf4b71af	-0.7947034
29	0xbf465158	-0.7746787
30	0xbf2f4790	-0.6846857
31	0xbeea8352	-0.45803314
32	0xbe8cb5f6	-0.27482575
33	0x3ed4a511	0.41532186
34	0xbf04e5ab	-0.51912946
35	0xbe9d7bbd	-0.30758467
36	0x3f470667	0.77744144
37	0xbe3bfa07	-0.18357097
38	0xbeb0acf6	-0.3450696
39	0x3f6006bb	0.8751027
40	0xbf3ce0e0	-0.7378063
41	0xbf33fbab	-0.7030589
42	0xbe1a74fe	-0.15083691
43	0xbe195ba2	-0.14976361
44	0x3ef39b42	0.4757939
45	0x3f60d8c8	0.8783078
46	0x3efa1567	0.48844454
47	0x3e5e1064	0.2168594
48	0x3f0acbc6	0.54217184
49	0x3df78ebc	0.12087771
50	0xbf04549d	-0.5169161
51	0x3ee87eff	0.4540939
52	0xbec4304e	-0.38318104
53	0xbe8ffc58	-0.2812221
54	0xbe7a5558	-0.24446619
55	0x3d89a50a	0.06720932
56	0x3e14b99a	0.14523926
57	0x3eba2957	0.36359665
58	0xbe4ae163	-0.1981254
59	0xbf1503bb	-0.5820882
60	0x3df4e02f	0.11956822
61	0xbeff8324	-0.4990474
62	0xbe12a59b	-0.14320986
63	0x3f9b7138	1.2143927
64	0x3f0ca1a0	0.5493412
65	0xbf062738	-0.52403593
66	0xbf9a60a7	-1.2060746
67	0x3f20d30f	0.6282205
68	0xbe82ce14	-0.2554785
69	0xbe2bfb48	-0.16795075
70	0xbe9fc7fb	-0.3120726
71	0xbc067fef	-0.008209213
72	0xbf081e2a	-0.53171027
73	0x3f289658	0.65854406
74	0x3dde1dfb	0.10845562
75	0xbe4d4baf	-0.20048402
76	0xbf05cd8f	-0.5226678
77	0xbf160658	-0.5860343
78	0x3f22b232	0.63553154
79	0x3ec8a202	0.39186102
80	0xbec9f3e0	-0.39443874
81	0x3ea49aed	0.3214945
82	0x3ef67cfc	0.4814223
83	0x3f4a191f	0.7894458
84	0xbee24933	-0.44196472
85	0xbf03ddf5	-0.51510555
86	0x3f78ec5a	0.97235644
87	0xbef609e2	-0.48054415
88	0x3f60be6f	0.8779058
89	0x3e919104	0.2843095
90	0x3f6c8505	0.9239047
91	0xbe714222	-0.23560384
92	0x3f5b73b7	0.8572344
93	0x3f14b92f	0.5809507
94	0xbeb063ec	-0.34451234
95	0x3f4c88e6	0.7989639
96	0xbf08f227	-0.53494495
97	0xbf8ef3a8	-1.1168108
98	0xbeff593e	-0.49872774
99	0x3cb39150	0.021919876
100	0xbec9e9fb	-0.39436325
101	0xbe8f78e3	-0.28021917
102	0x3ebb9f88	0.3664515
103	0x3d6dc33c	0.058047518
104	0x3d5bfffd	0.053710926
105	0x3f4e690e	0.8062905
106	0x3db1e22e	0.086857185
107	0xbe962b91	-0.29330114
108	0xbed893fc	-0.42300403
109	0xbf0b58e6	-0.54432523
110	0x3e382bdf	0.17985485
111	0xbe3196b6	-0.17342648
112	0xbf385546	-0.72005117
113	0xbee6ad23	-0.45053968
114	0xbd5509bc	-0.052011237
115	0x3c2f265c	0.010690298
116	0x3e2692e3	0.1626697
117	0x3f42311d	0.7585619
118	0x3f7ace10	0.97970676
119	0xbee9b97a	-0.4564932
120	0xbf1b5e88	-0.6069112
121	0x3f3ad369	0.72978836
122	0xbf293d2e	-0.6610898
123	0xbe14312c	-0.14471883
124	0x3ef61da6	0.48069495
125	0xbebfb0cb	-0.3743957
126	0xbf01969d	-0.5062044
127	0x3e985bf7	0.29757664
128	0xbf2070ec	-0.62672305
129	0x3f0f2d4d	0.559285
130	0xbef9b924	-0.48774064
131	0xbee8caf4	-0.4546734
132	0x3d0635d4	0.03276618
133	0xbe4009a3	-0.18753676
134	0x3f0b7a50	0.5448351
135	0x3f2aa08d	0.6665123
136	0xbf214290	-0.6299219
137	0x3f904de3	1.1273769
138	0x3e85ba6c	0.2611879
139	0xbebc0c7a	-0.3672827
140	0x3b83a2e0	0.004017219
141	0x3cf5e308	0.030015483
142	0xbf63f31d	-0.89042836
143	0xbea91a3e	-0.33027834
144	0x3e145c5c	0.14488357
145	0x3cd86f74	0.026420332
146	0x3d816c7c	0.0631952
147	0x3f021a56	0.50821435
148	0xbe890c4b	-0.2676719
149	0x3f21de82	0.63230145
150	0xbf72bee3	-0.9482252
151	0x3d02a37e	0.0318942
152	0x3e8b8f41	0.27257732
153	0xbd87fa62	-0.066395536
154	0xbe3a1a78	-0.1817416
155	0xbdce9204	-0.10086444
156	0xbea22c0c	-0.3167423
157	0x3db8264d	0.0899168
158	0xbde21ecc	-0.1104103
159	0xbf34c59e	-0.7061404
160	0xbef82d15	-0.48471895
161	0xbe16c2cb	-0.14722745
162	0xbebe7e13	-0.37205562
163	0x3f2d423a	0.6767918
164	0xbf1683c8	-0.5879483
165	0x3f1577af	0.5838575
166	0xbe2dca3c	-0.16971678
167	0xbf162898	-0.5865569
168	0x3f47a605	0.779877
169	0xbf20b2ac	-0.6277263
170	0xbee849a0	-0.4536867
171	0xbeff76a2	-0.49895197
172	0xbee34f15	-0.44396272
173	0xbebea892	-0.37237984
174	0xbdc74496	-0.097298786
175	0x3f0ffca2	0.5624486
176	0xbef40583	-0.47660455
177	0xbe9ca5e0	-0.30595303
178	0x3e006958	0.12540185
179	0xbd0fe95a	-0.03513465
180	0xbe70a404	-0.23500067
181	0xbed9ba7c	-0.4252509
182	0xbf16795f	-0.5877895
183	0xbe33358a	-0.17500892
184	0xbee7439a	-0.45168763
185	0x3f73d5e8	0.9524827
186	0x3eaaadaa	0.3333562
187	0xbe4d98d1	-0.20077826
188	0x3d516928	0.051125675
189	0x3ea99c21	0.3312693
190	0xbd1644f0	-0.036686838
191	0x3e998a61	0.29988387
