projects/silabs-firmware-edge-device/app/ml_xg26_audio_classifier/config/tflite/keyword_spotting_custom_model_v1.tflite (tflite, 532720 bytes, 41 tensors)

tfl.pseudo_qconst1 i1 [4, 64] scale=0.0038549798 zero_point=0
000000 0c 42 16 2b 2a ba 02 a8 c9 f5 d5 02 e8 d9 3d 48
       0.046259757 0.25442865 0.08480956 0.16576412 0.16190915 -0.2698486 0.0077099595 -0.33923823 -0.21202388 -0.04240478 -0.16576412 0.0077099595 -0.092519514 -0.15034421 0.23515376 0.27755854
000010 35 2e da e4 c3 3b 02 c0 0a e6 53 b8 2f e5 53 3e
       0.20431393 0.17732906 -0.14648923 -0.10793944 -0.23515376 0.2274438 0.0077099595 -0.2467187 0.038549796 -0.10022947 0.3199633 -0.27755854 0.18118405 -0.104084454 0.3199633 0.23900874
000020 35 c2 05 4a a9 0c e9 3e c5 de 13 19 28 f1 fc 26
       0.20431393 -0.23900874 0.019274898 0.28526852 -0.33538324 0.046259757 -0.08866453 0.23900874 -0.2274438 -0.13106932 0.07324462 0.0963745 0.15419918 -0.057824697 -0.015419919 0.14648923
000030 2f b2 40 e6 d2 b9 e2 1e 36 32 bb 4f cd 07 fe e7
       0.18118405 -0.30068842 0.2467187 -0.10022947 -0.17732906 -0.27370358 -0.115649395 0.115649395 0.20816891 0.192749 -0.2659936 0.3045434 -0.19660397 0.02698486 -0.0077099595 -0.0963745
000040 31 02 47 03 f3 dd 29 e5 02 c0 f2 b4 ce 2a 0e 16
       0.188894 0.0077099595 0.27370358 0.011564939 -0.050114736 -0.1349243 0.15805417 -0.104084454 0.0077099595 -0.2467187 -0.05396972 -0.29297847 -0.192749 0.16190915 0.05396972 0.08480956
000050 4e 3a ee f8 b0 bb 2a b1 ef 41 cb 27 17 26 5a e1
       0.30068842 0.22358882 -0.069389634 -0.030839838 -0.30839837 -0.2659936 0.16190915 -0.3045434 -0.06553466 0.2505737 -0.20431393 0.15034421 0.08866453 0.14648923 0.34694818 -0.11950437
000060 2a c8 e3 19 08 f8 43 42 24 8f 04 ec 22 46 42 fd
       0.16190915 -0.21587887 -0.11179441 0.0963745 0.030839838 -0.030839838 0.25828364 0.25442865 0.13877927 -0.4356127 0.015419919 -0.07709959 0.13106932 0.2698486 0.25442865 -0.011564939
000070 e4 0d 35 1a 08 c5 2e 24 d6 21 12 e6 3c 05 bb af
       -0.10793944 0.050114736 0.20431393 0.10022947 0.030839838 -0.2274438 0.17732906 0.13877927 -0.16190915 0.12721433 0.069389634 -0.10022947 0.23129879 0.019274898 -0.2659936 -0.31225336
000080 2c 1f 20 47 c2 c5 d1 fb bd cf f4 13 21 e4 cd fc
       0.16961911 0.11950437 0.12335935 0.27370358 -0.23900874 -0.2274438 -0.18118405 -0.019274898 -0.25828364 -0.188894 -0.046259757 0.07324462 0.12721433 -0.10793944 -0.19660397 -0.015419919
000090 b8 06 3d 01 e1 40 ba 49 ff 42 42 29 bd fc 0f f4
       -0.27755854 0.023129879 0.23515376 0.0038549798 -0.11950437 0.2467187 -0.2698486 0.28141353 -0.0038549798 0.25442865 0.25442865 0.15805417 -0.25828364 -0.015419919 0.057824697 -0.046259757
0000a0 b2 f6 29 39 28 df 51 23 ef fb 37 b6 1b 37 db 07
       -0.30068842 -0.038549796 0.15805417 0.21973385 0.15419918 -0.12721433 0.31225336 0.1349243 -0.06553466 -0.019274898 0.21202388 -0.28526852 0.104084454 0.21202388 -0.14263426 0.02698486
0000b0 f7 1f 9d 2c cc 19 dc d9 b7 51 0c 27 de fc 17 21
       -0.034694817 0.11950437 -0.381643 0.16961911 -0.20045894 0.0963745 -0.13877927 -0.15034421 -0.28141353 0.31225336 0.046259757 0.15034421 -0.13106932 -0.015419919 0.08866453 0.12721433
0000c0 43 2a 9c a8 ef e5 28 ad ba 0c f8 bb 36 22 21 93
       0.25828364 0.16190915 -0.385498 -0.33923823 -0.06553466 -0.104084454 0.15419918 -0.3199633 -0.2698486 0.046259757 -0.030839838 -0.2659936 0.20816891 0.13106932 0.12721433 -0.4201928
0000d0 fe 9c ff ab 34 25 18 39 3a aa d0 25 30 3e c4 cb
       -0.0077099595 -0.385498 -0.0038549798 -0.3276733 0.20045894 0.14263426 0.092519514 0.21973385 0.22358882 -0.33152825 -0.18503903 0.14263426 0.18503903 0.23900874 -0.23129879 -0.20431393
0000e0 b2 b1 37 f0 49 1f 31 89 1f 1d 03 22 81 e6 19 46
       -0.30068842 -0.3045434 0.21202388 -0.061679676 0.28141353 0.11950437 0.188894 -0.4587426 0.11950437 0.11179441 0.011564939 0.13106932 -0.48958242 -0.10022947 0.0963745 0.2698486
0000f0 e0 aa 17 aa 26 30 43 22 2e 99 94 bc 21 ac ca d9
       -0.12335935 -0.33152825 0.08866453 -0.33152825 0.14648923 0.18503903 0.25828364 0.13106932 0.17732906 -0.39706293 -0.41633782 -0.26213863 0.12721433 -0.3238183 -0.20816891 -0.15034421

tfl.pseudo_qconst3 i1 [64, 1, 1, 192]
000000 00 07 03 1c e6 fb f9 41 29 31 df 44 e2 d8 2f 21
       0 7 3 28 -26 -5 -7 65 41 49 -33 68 -30 -40 47 33
000010 d1 27 4f 25 d9 13 47 fa 02 dc 1d fd c5 03 b7 ca
       -47 39 79 37 -39 19 71 -6 2 -36 29 -3 -59 3 -73 -54
000020 f4 16 dc 1f 09 05 1e fb f9 36 20 ce d8 0e 18 eb
       -12 22 -36 31 9 5 30 -5 -7 54 32 -50 -40 14 24 -21
000030 27 03 f5 fe 5c 0f 0d 16 ca d6 e1 00 fd cb d0 29
       39 3 -11 -2 92 15 13 22 -54 -42 -31 0 -3 -53 -48 41
000040 01 03 f6 ec 20 ba 40 f1 08 29 fc f9 e5 ff f4 e2
       1 3 -10 -20 32 -70 64 -15 8 41 -4 -7 -27 -1 -12 -30
000050 e4 e8 eb fd 2f 2e 1a fe 3f 4c cf 29 d3 fb eb 4a
       -28 -24 -21 -3 47 46 26 -2 63 76 -49 41 -45 -5 -21 74
000060 48 02 df cb 21 c1 0d ed e1 31 c3 22 13 fd eb 39
       72 2 -33 -53 33 -63 13 -19 -31 49 -61 34 19 -3 -21 57
000070 07 00 18 f2 ec 15 e2 45 ff 1b 19 2b 0f 06 1f e1
       7 0 24 -14 -20 21 -30 69 -1 27 25 43 15 6 31 -31
000080 05 1a 23 cc f6 2b 44 06 36 49 da f6 f1 53 da f4
       5 26 35 -52 -10 43 68 6 54 73 -38 -10 -15 83 -38 -12
000090 eb 96 07 21 0d f8 0f e0 f8 fa d6 eb 21 03 de 10
       -21 -106 7 33 13 -8 15 -32 -8 -6 -42 -21 33 3 -34 16
0000a0 c8 d7 20 49 0e f5 da 81 1c ed f3 00 d9 37 e7 ed
       -56 -41 32 73 14 -11 -38 -127 28 -19 -13 0 -39 55 -25 -19
0000b0 25 dd 04 e4 26 16 0c 2c 02 0c 00 1c e4 26 2f 05
       37 -35 4 -28 38 22 12 44 2 12 0 28 -28 38 47 5
0000c0 bc 6c d4 26 fb 10 39 36 d5 4b 34 a4 48 3c 25 e6
       -68 108 -44 38 -5 16 57 54 -43 75 52 -92 72 60 37 -26
0000d0 36 13 f6 5f 18 ea 2c 3b 04 e9 ea 16 33 25 f2 14
       54 19 -10 95 24 -22 44 59 4 -23 -22 22 51 37 -14 20
0000e0 14 f5 c9 fb 47 dc f7 3b b8 55 f0 24 f2 31 0c e4
       20 -11 -55 -5 71 -36 -9 59 -72 85 -16 36 -14 49 12 -28
0000f0 20 15 03 0b d3 00 2c e2 14 04 d0 d8 47 34 0b 4f
       32 21 3 11 -45 0 44 -30 20 4 -48 -40 71 52 11 79

tfl.pseudo_qconst5 i1 [1, 9, 1, 192]
000000 31 3a d3 a5 05 03 e8 d9 c9 3a 58 ed ee bd 03 bf
       49 58 -45 -91 5 3 -24 -39 -55 58 88 -19 -18 -67 3 -65
000010 93 e6 4f fc ca 14 22 7f 7f 09 93 4d 7f a7 06 a2
       -109 -26 79 -4 -54 20 34 127 127 9 -109 77 127 -89 6 -94
000020 df 2d 9c 2a 81 02 0d fd b7 61 b3 b5 9b 81 f7 4e
       -33 45 -100 42 -127 2 13 -3 -73 97 -77 -75 -101 -127 -9 78
000030 3b 55 e5 d2 e1 f3 ed 0e 14 a2 fb 6e c4 2a c7 7f
       59 85 -27 -46 -31 -13 -19 14 20 -94 -5 110 -60 42 -57 127
000040 7f 6d f8 98 aa fb 23 30 7f 7f dc 2c 81 ce e9 d7
       127 109 -8 -104 -86 -5 35 48 127 127 -36 44 -127 -50 -23 -41
000050 e4 0f 81 42 03 14 81 4c 7f 7f a9 c6 23 7f 81 4d
       -28 15 -127 66 3 20 -127 76 127 127 -87 -58 35 127 -127 77
000060 ac a3 d6 42 3c b6 cc 5c 20 81 4f 5b f9 81 a2 cc
       -84 -93 -42 66 60 -74 -52 92 32 -127 79 91 -7 -127 -94 -52
000070 84 e2 31 d9 85 16 a2 f1 0e 90 1c 05 e8 f1 3a 11
       -124 -30 49 -39 -123 22 -94 -15 14 -112 28 5 -24 -15 58 17
000080 12 b5 22 a2 ce 2b ea e5 cf df d6 f5 c9 47 e3 15
       18 -75 34 -94 -50 43 -22 -27 -49 -33 -42 -11 -55 71 -29 21
000090 d7 81 31 e9 10 81 39 b4 ff 32 dd 14 f8 83 7f 00
       -41 -127 49 -23 16 -127 57 -76 -1 50 -35 20 -8 -125 127 0
0000a0 09 4f 94 e0 81 07 0e 5b 03 7f 10 dc 48 f9 b6 f6
       9 79 -108 -32 -127 7 14 91 3 127 16 -36 72 -7 -74 -10
0000b0 d8 7f 7f a4 e0 e0 ad c1 c7 d1 a5 22 cc 08 18 71
       -40 127 127 -92 -32 -32 -83 -63 -57 -47 -91 34 -52 8 24 113
0000c0 cc ea 1a e2 7f 7f 38 28 dc 4c 7f 1e e0 cf 14 15
       -52 -22 26 -30 127 127 56 40 -36 76 127 30 -32 -49 20 21
0000d0 f9 ad f9 44 cf 14 0b 59 63 7f d1 5d d6 14 0b a4
       -7 -83 -7 68 -49 20 11 89 99 127 -47 93 -42 20 11 -92
0000e0 a6 03 7f 55 84 e4 81 fb 81 b1 85 81 df 95 69 fd
       -90 3 127 85 -124 -28 -127 -5 -127 -79 -123 -127 -33 -107 105 -3
0000f0 54 e4 63 81 06 e6 26 a7 4d b0 3d 7a 72 3a e6 2a
       84 -28 99 -127 6 -26 38 -89 77 -80 61 122 114 58 -26 42

tfl.pseudo_qconst7 i1 [192, 1, 1, 64]
000000 f8 c6 e7 f7 12 48 c2 ea cc 27 1b db db ed 19 ee
       -8 -58 -25 -9 18 72 -62 -22 -52 39 27 -37 -37 -19 25 -18
000010 3f 4d f3 e7 b5 c9 a7 d4 12 e8 07 05 bc d8 c8 ca
       63 77 -13 -25 -75 -55 -89 -44 18 -24 7 5 -68 -40 -56 -54
000020 04 c9 f5 a4 00 07 08 3f c5 c4 2c 14 b0 44 15 42
       4 -55 -11 -92 0 7 8 63 -59 -60 44 20 -80 68 21 66
000030 28 c5 dd bd 19 28 0a 81 23 95 48 e3 ac d0 47 b1
       40 -59 -35 -67 25 40 10 -127 35 -107 72 -29 -84 -48 71 -79
000040 47 05 1a 0c e3 df fa 0a 20 06 d9 43 6c 58 e5 6f
       71 5 26 12 -29 -33 -6 10 32 6 -39 67 108 88 -27 111
000050 24 ca 3b 18 08 77 09 71 43 0c 65 df 66 bf 3a 58
       36 -54 59 24 8 119 9 113 67 12 101 -33 102 -65 58 88
000060 31 68 de 6a bf d2 41 1d 1c 66 eb 73 37 f5 51 09
       49 104 -34 106 -65 -46 65 29 28 102 -21 115 55 -11 81 9
000070 7f c9 34 24 22 59 b2 a0 53 b1 7c 4c d6 47 0d bb
       127 -55 52 36 34 89 -78 -96 83 -79 124 76 -42 71 13 -69
000080 ef e9 fd 10 10 4b 51 1b 14 4b 30 22 ef f3 17 08
       -17 -23 -3 16 16 75 81 27 20 75 48 34 -17 -13 23 8
000090 17 e9 c8 ce d5 c4 e8 f0 d0 31 ab f7 fb 09 a2 b5
       23 -23 -56 -50 -43 -60 -24 -16 -48 49 -85 -9 -5 9 -94 -75
0000a0 d7 7f f3 2b 1c 19 19 f8 e0 b0 20 cf b0 2f e1 5d
       -41 127 -13 43 28 25 25 -8 -32 -80 32 -49 -80 47 -31 93
0000b0 b9 f9 bc 10 47 5a 32 28 3d d7 c9 4d 11 e2 f1 12
       -71 -7 -68 16 71 90 50 40 61 -41 -55 77 17 -30 -15 18
0000c0 e5 05 31 f7 4e d3 2c 57 49 06 ef 0d 19 59 ed a5
       -27 5 49 -9 78 -45 44 87 73 6 -17 13 25 89 -19 -91
0000d0 7f 74 d9 3a e8 e5 6a 00 c7 4c c3 2f fe 00 db ac
       127 116 -39 58 -24 -27 106 0 -57 76 -61 47 -2 0 -37 -84
0000e0 2f df 59 0e c0 c1 d8 de 5a bf 9e f8 34 3d ec 94
       47 -33 89 14 -64 -63 -40 -34 90 -65 -98 -8 52 61 -20 -108
0000f0 eb e3 29 37 f0 49 6b 3d f2 d1 bf b0 ec f9 12 ef
       -21 -29 41 55 -16 73 107 61 -14 -47 -65 -80 -20 -7 18 -17

tfl.pseudo_qconst9 i1 [64, 1, 1, 192]
000000 04 de fb c5 56 dc cc fa 03 0a e6 1e e7 b0 ec b2
       4 -34 -5 -59 86 -36 -52 -6 3 10 -26 30 -25 -80 -20 -78
000010 17 f9 f5 13 04 24 7f 42 d6 d8 2c 0f 32 b2 06 f0
       23 -7 -11 19 4 36 127 66 -42 -40 44 15 50 -78 6 -16
000020 e3 18 0c 0c 08 24 23 59 d0 2c 14 3b fa 34 52 19
       -29 24 12 12 8 36 35 89 -48 44 20 59 -6 52 82 25
000030 be d9 28 f7 f4 db 31 a4 12 12 de 27 3a 30 05 f4
       -66 -39 40 -9 -12 -37 49 -92 18 18 -34 39 58 48 5 -12
000040 f8 fe e8 29 0d e8 da dc d8 ec d1 04 c8 09 d3 97
       -8 -2 -24 41 13 -24 -38 -36 -40 -20 -47 4 -56 9 -45 -105
000050 4a 1e 06 d4 f2 0e f3 d7 93 e0 3d 11 23 d8 01 f4
       74 30 6 -44 -14 14 -13 -41 -109 -32 61 17 35 -40 1 -12
000060 f4 4e db 0c b9 14 26 fc 21 c5 c9 00 01 01 da ca
       -12 78 -37 12 -71 20 38 -4 33 -59 -55 0 1 1 -38 -54
000070 df d1 c2 e4 cd a6 dd 46 39 d1 d6 c9 15 e5 20 21
       -33 -47 -62 -28 -51 -90 -35 70 57 -47 -42 -55 21 -27 32 33
000080 d9 b8 f8 1e bd a0 0f d2 e4 65 d9 bc 49 ea 57 0f
       -39 -72 -8 30 -67 -96 15 -46 -28 101 -39 -68 73 -22 87 15
000090 e8 96 1f ec de 26 03 d5 c3 c6 0d 15 f9 01 da 11
       -24 -106 31 -20 -34 38 3 -43 -61 -58 13 21 -7 1 -38 17
0000a0 30 2d 25 e3 12 34 1d 27 54 13 be 14 f5 57 33 ef
       48 45 37 -29 18 52 29 39 84 19 -66 20 -11 87 51 -17
0000b0 08 bd 45 db 2e 00 31 dd d8 ca 59 dc ce d4 06 08
       8 -67 69 -37 46 0 49 -35 -40 -54 89 -36 -50 -44 6 8
0000c0 ea ee 44 e1 40 d1 64 01 06 f6 ce 09 1b f7 e7 08
       -22 -18 68 -31 64 -47 100 1 6 -10 -50 9 27 -9 -25 8
0000d0 df 7f 4b eb fd ae cf 11 ff f1 ce 29 c9 af c8 6a
       -33 127 75 -21 -3 -82 -49 17 -1 -15 -50 41 -55 -81 -56 106
0000e0 f9 51 25 ff e8 df cc a0 34 c9 21 cc 13 f8 d0 19
       -7 81 37 -1 -24 -33 -52 -96 52 -55 33 -52 19 -8 -48 25
0000f0 b5 f5 19 de 28 4d fd 32 e0 5c 73 cf c6 3c 9f 37
       -75 -11 25 -34 40 77 -3 50 -32 92 115 -49 -58 60 -97 55

tfl.pseudo_qconst11 i1 [1, 9, 1, 192]
000000 45 08 76 ff 72 00 7f 7f ff a7 ba c0 2f 7f 3b b0
       69 8 118 -1 114 0 127 127 -1 -89 -70 -64 47 127 59 -80
000010 81 36 90 7f 20 70 ab 8b cd 7f 7f 7f 3e 81 b8 00
       -127 54 -112 127 32 112 -85 -117 -51 127 127 127 62 -127 -72 0
000020 a5 f2 22 ff 00 a8 a5 c7 fb e9 65 81 ac 9d 81 93
       -91 -14 34 -1 0 -88 -91 -57 -5 -23 101 -127 -84 -99 -127 -109
000030 86 cc f9 be 16 ea de 1b d5 2d 05 0d 7f 9c 16 81
       -122 -52 -7 -66 22 -22 -34 27 -43 45 5 13 127 -100 22 -127
000040 b2 f2 5e df 41 7f f9 7f 37 bd 0d 6e 1b 2e 31 08
       -78 -14 94 -33 65 127 -7 127 55 -67 13 110 27 46 49 8
000050 1f 75 e3 81 d0 1b cb ca 6f 7f fe c6 8f 77 29 08
       31 117 -29 -127 -48 27 -53 -54 111 127 -2 -58 -113 119 41 8
000060 d6 03 f1 b6 0c d7 0b 13 4d 87 81 7f 81 b0 a6 a3
       -42 3 -15 -74 12 -41 11 19 77 -121 -127 127 -127 -80 -90 -93
000070 7f 1b 55 81 7f 2b 81 81 cc d9 fc 09 7f 7f a9 eb
       127 27 85 -127 127 43 -127 -127 -52 -39 -4 9 127 127 -87 -21
000080 dd b4 d0 70 5d 7f dc d0 d6 81 36 c4 7f 72 81 98
       -35 -76 -48 112 93 127 -36 -48 -42 -127 54 -60 127 114 -127 -104
000090 d4 d8 a5 ca e4 db 81 b5 1e 5d a5 f4 1c 00 52 7f
       -44 -40 -91 -54 -28 -37 -127 -75 30 93 -91 -12 28 0 82 127
0000a0 ed 7d 82 7a b0 d3 d6 44 81 9c 3e de 7f 81 81 fb
       -19 125 -126 122 -80 -45 -42 68 -127 -100 62 -34 127 -127 -127 -5
0000b0 81 13 e7 58 e3 04 66 f8 31 83 10 99 26 7f 8b 29
       -127 19 -25 88 -29 4 102 -8 49 -125 16 -103 38 127 -117 41
0000c0 b3 c1 42 b9 7f dc 7a 25 81 20 f1 f1 19 22 20 d1
       -77 -63 66 -71 127 -36 122 37 -127 32 -15 -15 25 34 32 -47
0000d0 ef 65 e8 cf af 7f 2f d4 d8 47 0b 6c 12 a8 0e e7
       -17 101 -24 -49 -81 127 47 -44 -40 71 11 108 18 -88 14 -25
0000e0 93 de 7f bc 8d be 92 f1 2b 8c 35 f3 e9 89 97 d9
       -109 -34 127 -68 -115 -66 -110 -15 43 -116 53 -13 -23 -119 -105 -39
0000f0 eb eb 00 0a 47 0a 88 eb 7f 7f d9 81 70 c7 db fa
       -21 -21 0 10 71 10 -120 -21 127 127 -39 -127 112 -57 -37 -6

tfl.pseudo_qconst13 i1 [192, 1, 1, 64]
000000 bb 1d 24 03 10 dc d9 12 06 db 24 d6 ed 08 d8 d3
       -69 29 36 3 16 -36 -39 18 6 -37 36 -42 -19 8 -40 -45
000010 1e d1 4a 15 d0 2c 02 0a f8 f5 22 47 29 2e de 1e
       30 -47 74 21 -48 44 2 10 -8 -11 34 71 41 46 -34 30
000020 ee 5b 19 d2 57 2a fc f7 47 7f e7 05 42 ce 1d 48
       -18 91 25 -46 87 42 -4 -9 71 127 -25 5 66 -50 29 72
000030 9b 5a ae 00 66 0e 0c 5c d5 2b ec bc f3 f6 e2 b4
       -101 90 -82 0 102 14 12 92 -43 43 -20 -68 -13 -10 -30 -76
000040 dc bc f5 bc fd d5 f5 33 49 1e 05 f8 e8 ef 06 f2
       -36 -68 -11 -68 -3 -43 -11 51 73 30 5 -8 -24 -17 6 -14
000050 9f dc eb 0f 3f fa cf 2f e0 ec c8 1c 0c 41 33 af
       -97 -36 -21 15 63 -6 -49 47 -32 -20 -56 28 12 65 51 -81
000060 e7 32 d7 8d e4 ad e3 33 d8 2a b8 09 81 cf b0 fb
       -25 50 -41 -115 -28 -83 -29 51 -40 42 -72 9 -127 -49 -80 -5
000070 cd d5 ea f0 54 f2 06 bd 30 de 1b 9e 32 5e 14 12
       -51 -43 -22 -16 84 -14 6 -67 48 -34 27 -98 50 94 20 18
000080 7d 30 b1 ef eb b7 24 b6 da 1f 53 51 44 24 d6 32
       125 48 -79 -17 -21 -73 36 -74 -38 31 83 81 68 36 -42 50
000090 b9 15 22 0f d8 15 d5 03 e4 f3 43 c2 1b dc ac d9
       -71 21 34 15 -40 21 -43 3 -28 -13 67 -62 27 -36 -84 -39
0000a0 21 28 3a e2 c3 00 2b 39 fc fb 00 d1 b6 5b 31 3e
       33 40 58 -30 -61 0 43 57 -4 -5 0 -47 -74 91 49 62
0000b0 d6 20 14 f6 04 c6 00 27 ee cc 54 e2 07 cc b9 7f
       -42 32 20 -10 4 -58 0 39 -18 -52 84 -30 7 -52 -71 127
0000c0 1a 0b 08 d1 f4 0b d8 46 e3 d9 ef f3 48 fa 3c 2a
       26 11 8 -47 -12 11 -40 70 -29 -39 -17 -13 72 -6 60 42
0000d0 cb 9a 97 b6 0f 33 fc ee 22 0e 30 cd 2b d6 40 3c
       -53 -102 -105 -74 15 51 -4 -18 34 14 48 -51 43 -42 64 60
0000e0 de f4 e0 3e e1 c1 c1 ed f1 43 16 30 db b8 39 4f
       -34 -12 -32 62 -31 -63 -63 -19 -15 67 22 48 -37 -72 57 79
0000f0 c8 ec 22 25 c9 a9 d1 4d 7f c2 32 ec 18 e9 f6 13
       -56 -20 34 37 -55 -87 -47 77 127 -62 50 -20 24 -23 -10 19

tfl.pseudo_qconst15 i1 [64, 1, 1, 192]
000000 8f 81 f1 e9 c2 d4 b0 e1 f0 d5 ef dc de ff e8 30
       -113 -127 -15 -23 -62 -44 -80 -31 -16 -43 -17 -36 -34 -1 -24 48
000010 3b 3d 33 29 05 f8 37 e9 fb 1e 07 5b 2b e7 ec d2
       59 61 51 41 5 -8 55 -23 -5 30 7 91 43 -25 -20 -46
000020 6e f4 cb 35 31 f5 ba 30 b5 e8 0a db e3 1e 70 fa
       110 -12 -53 53 49 -11 -70 48 -75 -24 10 -37 -29 30 112 -6
000030 cf 1d d2 d6 28 22 03 22 32 ca 0b f1 4d ea b3 12
       -49 29 -46 -42 40 34 3 34 50 -54 11 -15 77 -22 -77 18
000040 0a d4 c9 22 cc cd f3 e2 31 f5 0c fb f7 cb fa 59
       10 -44 -55 34 -52 -51 -13 -30 49 -11 12 -5 -9 -53 -6 89
000050 d5 15 e0 03 08 dc bf f4 f7 c2 41 27 d1 e6 1e db
       -43 21 -32 3 8 -36 -65 -12 -9 -62 65 39 -47 -26 30 -37
000060 d5 d9 33 2b e6 34 ec 4c 17 e5 16 28 bd 1e 07 d2
       -43 -39 51 43 -26 52 -20 76 23 -27 22 40 -67 30 7 -46
000070 f6 db 4f 3b 42 d4 bd fd 23 d3 23 17 ee fd 54 d5
       -10 -37 79 59 66 -44 -67 -3 35 -45 35 23 -18 -3 84 -43
000080 dd 41 11 38 08 16 2a 5d eb 1e 41 dc 2e 13 a7 25
       -35 65 17 56 8 22 42 93 -21 30 65 -36 46 19 -89 37
000090 17 f6 c7 43 e0 cf 2f fd dc 05 e6 35 13 b8 13 bd
       23 -10 -57 67 -32 -49 47 -3 -36 5 -26 53 19 -72 19 -67
0000a0 1d db f8 00 0d 0f ee c1 d0 31 0c 7c 0b 0e b8 db
       29 -37 -8 0 13 15 -18 -63 -48 49 12 124 11 14 -72 -37
0000b0 4a d3 d4 d5 e2 19 af e9 37 c1 99 0a 28 c9 d5 ca
       74 -45 -44 -43 -30 25 -81 -23 55 -63 -103 10 40 -55 -43 -54
0000c0 eb fc ce 27 5d 44 1f 1b 17 03 28 14 f4 1e 1f 0e
       -21 -4 -50 39 93 68 31 27 23 3 40 20 -12 30 31 14
0000d0 12 0f ca f7 12 e2 d5 1b e9 e1 f9 bc 30 3d 02 ee
       18 15 -54 -9 18 -30 -43 27 -23 -31 -7 -68 48 61 2 -18
0000e0 20 11 44 1f d5 59 b7 0a 4e 24 ca 2d fb 1f 11 49
       32 17 68 31 -43 89 -73 10 78 36 -54 45 -5 31 17 73
0000f0 0d 07 d9 1b f1 eb 3e 3a cb ed ec f9 28 30 d5 da
       13 7 -39 27 -15 -21 62 58 -53 -19 -20 -7 40 48 -43 -38

tfl.pseudo_qconst17 i1 [1, 9, 1, 192]
000000 4b f7 0b 7f 81 b9 e7 f1 48 43 fa 81 a4 2a b0 75
       75 -9 11 127 -127 -71 -25 -15 72 67 -6 -127 -92 42 -80 117
000010 e1 73 ba ff 7f ee c2 15 ec 04 b3 bb 14 c9 cc 21
       -31 115 -70 -1 127 -18 -62 21 -20 4 -77 -69 20 -55 -52 33
000020 81 10 be a5 19 2f a7 92 7c 37 8d 7f c3 08 7f d9
       -127 16 -66 -91 25 47 -89 -110 124 55 -115 127 -61 8 127 -39
000030 f4 a3 2f c2 29 27 4b 27 04 a6 81 81 2c 05 b1 4d
       -12 -93 47 -62 41 39 75 39 4 -90 -127 -127 44 5 -79 77
000040 b5 95 43 7f 98 81 b5 7f 3c 7f 81 15 00 81 82 2c
       -75 -107 67 127 -104 -127 -75 127 60 127 -127 21 0 -127 -126 44
000050 a1 87 e3 06 8e d3 86 d5 f2 c2 0b 81 ae fb 68 bb
       -95 -121 -29 6 -114 -45 -122 -43 -14 -62 11 -127 -82 -5 104 -69
000060 d0 1f b3 34 0b 60 e0 0e 90 a7 09 7f b7 ce be 0d
       -48 31 -77 52 11 96 -32 14 -112 -89 9 127 -73 -50 -66 13
000070 37 a7 81 4d 8c 6e 03 8c b8 eb 81 38 03 7f f0 11
       55 -89 -127 77 -116 110 3 -116 -72 -21 -127 56 3 127 -16 17
000080 7f 49 8b ea 81 f8 b1 d7 e3 06 7f 07 da c3 7f 27
       127 73 -117 -22 -127 -8 -79 -41 -29 6 127 7 -38 -61 127 39
000090 43 7f 81 c3 7f 13 0c 7f b2 ff 7f 81 0e 8d d5 b2
       67 127 -127 -61 127 19 12 127 -78 -1 127 -127 14 -115 -43 -78
0000a0 81 14 7f 81 a6 c7 18 01 46 06 aa 7f aa 8c 1b af
       -127 20 127 -127 -90 -57 24 1 70 6 -86 127 -86 -116 27 -81
0000b0 f4 11 00 db c3 28 ba e6 2c 2e f7 cf 15 f4 7f 89
       -12 17 0 -37 -61 40 -70 -26 44 46 -9 -49 21 -12 127 -119
0000c0 7f 19 e9 d3 9e c5 f4 e3 96 05 f4 02 81 88 98 7f
       127 25 -23 -45 -98 -59 -12 -29 -106 5 -12 2 -127 -120 -104 127
0000d0 23 04 c4 cd e0 97 7f 12 8f 71 c1 16 e2 43 15 37
       35 4 -60 -51 -32 -105 127 18 -113 113 -63 22 -30 67 21 55
0000e0 1a 35 d1 aa 21 05 f8 a8 5e 0e d1 23 c2 13 66 03
       26 53 -47 -86 33 5 -8 -88 94 14 -47 35 -62 19 102 3
0000f0 81 e5 cf 9a 56 54 7f bf f3 81 ce 04 f5 36 d4 34
       -127 -27 -49 -102 86 84 127 -65 -13 -127 -50 4 -11 54 -44 52

tfl.pseudo_qconst19 i1 [192, 1, 1, 64]
000000 d4 0f 5c e1 e5 d6 b9 ff 2a 7f 66 de d4 f1 18 31
       -44 15 92 -31 -27 -42 -71 -1 42 127 102 -34 -44 -15 24 49
000010 d9 c7 46 08 75 35 2a c5 3a 2f 2f 1b 30 fc ff dd
       -39 -57 70 8 117 53 42 -59 58 47 47 27 48 -4 -1 -35
000020 2f 40 5e 48 ed 36 ff f8 0f 3c 3e ba 34 f9 3b 22
       47 64 94 72 -19 54 -1 -8 15 60 62 -70 52 -7 59 34
000030 f8 df f8 ef e7 d2 0c 01 5c 11 f2 8d ee 57 cb 0f
       -8 -33 -8 -17 -25 -46 12 1 92 17 -14 -115 -18 87 -53 15
000040 ec e6 ad 1d 08 97 02 81 0a f9 28 dc 0f 20 f5 ce
       -20 -26 -83 29 8 -105 2 -127 10 -7 40 -36 15 32 -11 -50
000050 dd 8c d4 37 ea 4b 1d e8 28 e4 f0 ed 1f c8 b3 14
       -35 -116 -44 55 -22 75 29 -24 40 -28 -16 -19 31 -56 -77 20
000060 e7 02 05 3e 14 43 ff 02 47 0f 3c 54 03 4b be 76
       -25 2 5 62 20 67 -1 2 71 15 60 84 3 75 -66 118
000070 b1 3b 3c f6 cf de 42 21 26 07 66 b8 24 df 29 3c
       -79 59 60 -10 -49 -34 66 33 38 7 102 -72 36 -33 41 60
000080 fe 4d 0b 81 3d db 39 dc 2e be d7 c8 43 3b 1a a8
       -2 77 11 -127 61 -37 57 -36 46 -66 -41 -56 67 59 26 -88
000090 e8 26 0d 02 13 12 b9 ff 4a 3d 4e 0b 23 d2 eb 35
       -24 38 13 2 19 18 -71 -1 74 61 78 11 35 -46 -21 53
0000a0 c7 47 10 4a a3 e3 d5 01 d3 53 01 0b 08 b6 0c e9
       -57 71 16 74 -93 -29 -43 1 -45 83 1 11 8 -74 12 -23
0000b0 ee 59 33 22 c0 0a 11 09 51 31 db 47 41 ee 03 fa
       -18 89 51 34 -64 10 17 9 81 49 -37 71 65 -18 3 -6
0000c0 77 0b ec 95 e5 db ee f6 5e 40 44 df 03 df f1 a7
       119 11 -20 -107 -27 -37 -18 -10 94 64 68 -33 3 -33 -15 -89
0000d0 1e af 1a 3f 7e 2a 13 09 7f d5 14 d7 40 10 cc a6
       30 -81 26 63 126 42 19 9 127 -43 20 -41 64 16 -52 -90
0000e0 d1 eb 57 de b5 36 33 f6 34 34 de 38 d4 26 cf e0
       -47 -21 87 -34 -75 54 51 -10 52 52 -34 56 -44 38 -49 -32
0000f0 c0 5f 24 40 9f 28 4d 29 60 d0 77 5f 78 7f 54 41
       -64 95 36 64 -97 40 77 41 96 -48 119 95 120 127 84 65

tfl.pseudo_qconst21 i1 [64, 1, 1, 64]
000000 21 36 e1 4c cb bb ef e1 06 2f 17 29 d3 37 e2 a8
       33 54 -31 76 -53 -69 -17 -31 6 47 23 41 -45 55 -30 -88
000010 16 7f d0 14 1a 30 38 0d a8 d4 11 09 17 db 17 40
       22 127 -48 20 26 48 56 13 -88 -44 17 9 23 -37 23 64
000020 d2 fe 3f 09 f6 b6 eb c5 2b b6 0f ed d3 f3 26 5b
       -46 -2 63 9 -10 -74 -21 -59 43 -74 15 -19 -45 -13 38 91
000030 fa dd ba f8 4b d0 d6 c9 05 39 ff bf 46 ee e1 36
       -6 -35 -70 -8 75 -48 -42 -55 5 57 -1 -65 70 -18 -31 54
000040 87 c1 e2 f7 e1 57 24 8a 06 fd d5 b2 3b ef 5c c2
       -121 -63 -30 -9 -31 87 36 -118 6 -3 -43 -78 59 -17 92 -62
000050 55 e4 2a 32 ee 24 06 12 bf cf e0 f8 ca f9 fe 6e
       85 -28 42 50 -18 36 6 18 -65 -49 -32 -8 -54 -7 -2 110
000060 3d 74 3a 0a dd dd 5d cb 46 ec 2e e4 35 13 58 e9
       61 116 58 10 -35 -35 93 -53 70 -20 46 -28 53 19 88 -23
000070 f0 b9 2e 0d 47 0c 13 ab 4f f6 cb 30 41 e7 7f 2d
       -16 -71 46 13 71 12 19 -85 79 -10 -53 48 65 -25 127 45
000080 bc 7f 13 aa 20 05 91 b3 33 d3 33 5d 08 60 69 69
       -68 127 19 -86 32 5 -111 -77 51 -45 51 93 8 96 105 105
000090 12 31 d5 cf 05 0d da fc 42 dd ed 3c 60 d3 2c bf
       18 49 -43 -49 5 13 -38 -4 66 -35 -19 60 96 -45 44 -65
0000a0 ef ea 3a f1 e5 25 d2 e6 9f ad 14 11 12 d8 fc 6d
       -17 -22 58 -15 -27 37 -46 -26 -97 -83 20 17 18 -40 -4 109
0000b0 b4 c5 fb e9 57 df d1 a4 dc 09 fb 36 15 14 8f 3e
       -76 -59 -5 -23 87 -33 -47 -92 -36 9 -5 54 21 20 -113 62
0000c0 1a 34 34 74 bb de 02 b5 e6 1d 07 2d 3e 4d 09 4d
       26 52 52 116 -69 -34 2 -75 -26 29 7 45 62 77 9 77
0000d0 47 f6 f7 21 fd 78 0a d7 43 c2 b3 a9 0a 3e 89 39
       71 -10 -9 33 -3 120 10 -41 67 -62 -77 -87 10 62 -119 57
0000e0 fc c2 29 51 ec de 00 68 10 10 0e 44 d8 57 24 f8
       -4 -62 41 81 -20 -34 0 104 16 16 14 68 -40 87 36 -8
0000f0 be f2 44 db ee 72 50 b1 dd ba f4 36 ef 0f 6e 81
       -66 -14 68 -37 -18 114 80 -79 -35 -70 -12 54 -17 15 110 -127

tfl.pseudo_qconst23 i1 [64, 1, 1, 192]
000000 19 0c fd f1 d0 05 dc c6 0a 03 32 ec c4 e0 fc ea
       25 12 -3 -15 -48 5 -36 -58 10 3 50 -20 -60 -32 -4 -22
000010 7f d5 0a 01 06 cf 09 53 df d2 06 d5 2a ea eb 32
       127 -43 10 1 6 -49 9 83 -33 -46 6 -43 42 -22 -21 50
000020 2b e0 f8 18 d6 16 f5 48 fc 1e 04 16 ba 14 d9 54
       43 -32 -8 24 -42 22 -11 72 -4 30 4 22 -70 20 -39 84
000030 ea 22 2c ca 32 c2 f9 2a e3 14 25 c6 11 d2 f0 c8
       -22 34 44 -54 50 -62 -7 42 -29 20 37 -58 17 -46 -16 -56
000040 e7 1b fb d6 12 03 bb f7 34 ec c9 e3 dd dc ef ed
       -25 27 -5 -42 18 3 -69 -9 52 -20 -55 -29 -35 -36 -17 -19
000050 cf db 11 01 02 fc 1b de f2 e6 20 1c 15 c7 e3 d3
       -49 -37 17 1 2 -4 27 -34 -14 -26 32 28 21 -57 -29 -45
000060 11 f8 01 a6 19 fb f3 ee d3 ee 01 1a 1e ba 02 19
       17 -8 1 -90 25 -5 -13 -18 -45 -18 1 26 30 -70 2 25
000070 1a 29 2d ea 0e 10 fb de ec 3d 02 2a 02 09 38 09
       26 41 45 -22 14 16 -5 -34 -20 61 2 42 2 9 56 9
000080 50 d7 c2 16 c4 e6 00 01 c5 d9 f1 f0 2a 44 49 3f
       80 -41 -62 22 -60 -26 0 1 -59 -39 -15 -16 42 68 73 63
000090 43 0a c0 4a 15 ec f1 e0 cf 18 4d bc d2 11 06 1e
       67 10 -64 74 21 -20 -15 -32 -49 24 77 -68 -46 17 6 30
0000a0 44 da 2f f3 e5 04 23 fa cb 1f fb 20 06 19 12 20
       68 -38 47 -13 -27 4 35 -6 -53 31 -5 32 6 25 18 32
0000b0 2e 52 21 c3 44 fd e5 c8 f7 12 10 33 21 ec 3a c0
       46 82 33 -61 68 -3 -27 -56 -9 18 16 51 33 -20 58 -64
0000c0 d5 1b 03 d1 f6 da d4 09 d3 f5 1f 37 1a 38 27 22
       -43 27 3 -47 -10 -38 -44 9 -45 -11 31 55 26 56 39 34
0000d0 48 a4 ce 1e c1 f7 09 2e 27 f7 e8 b9 c5 04 11 f4
       72 -92 -50 30 -63 -9 9 46 39 -9 -24 -71 -59 4 17 -12
0000e0 ea d2 e9 ea 1f d2 09 f1 b2 bd 09 d8 f7 1e fe 08
       -22 -46 -23 -22 31 -46 9 -15 -78 -67 9 -40 -9 30 -2 8
0000f0 10 18 10 f7 fe 40 2c cd e0 c7 07 ea a3 10 ce 4f
       16 24 16 -9 -2 64 44 -51 -32 -57 7 -22 -93 16 -50 79

tfl.pseudo_qconst25 i1 [1, 9, 1, 192]
000000 f6 90 38 06 95 6f 4a c5 81 8c a7 81 75 7f 62 5f
       -10 -112 56 6 -107 111 74 -59 -127 -116 -89 -127 117 127 98 95
000010 e9 27 54 9b 26 d0 f3 43 97 e8 fd ad 7b c8 7f 7a
       -23 39 84 -101 38 -48 -13 67 -105 -24 -3 -83 123 -56 127 122
000020 a1 e6 1d 14 81 bc 7f b7 64 7f 18 e1 2d 8b bd 58
       -95 -26 29 20 -127 -68 127 -73 100 127 24 -31 45 -117 -67 88
000030 81 eb a8 cd 20 68 ae c3 ed c3 c8 7f 51 e4 d4 59
       -127 -21 -88 -51 32 104 -82 -61 -19 -61 -56 127 81 -28 -44 89
000040 97 07 e3 e8 51 7f dd e7 8f b7 6c 9a 4b ad 0d d7
       -105 7 -29 -24 81 127 -35 -25 -113 -73 108 -102 75 -83 13 -41
000050 f3 5d 81 94 bd a3 79 4e c1 81 fb 36 e0 b4 37 b1
       -13 93 -127 -108 -67 -93 121 78 -63 -127 -5 54 -32 -76 55 -79
000060 da 7f e6 7f e4 ea 8d 81 f0 88 90 17 c2 1d d5 ec
       -38 127 -26 127 -28 -22 -115 -127 -16 -120 -112 23 -62 29 -43 -20
000070 a4 b4 15 04 ed 10 5b 81 0a be c9 c9 29 3d 89 4b
       -92 -76 21 4 -19 16 91 -127 10 -66 -55 -55 41 61 -119 75
000080 33 f6 18 8b 9f 3e e0 16 9f 96 df e5 7f f6 62 08
       51 -10 24 -117 -97 62 -32 22 -97 -106 -33 -27 127 -10 98 8
000090 bc 45 16 db 62 50 d7 16 05 c5 8a aa 0a d5 3a 4d
       -68 69 22 -37 98 80 -41 22 5 -59 -118 -86 10 -43 58 77
0000a0 0d e7 7f a1 b2 85 d7 eb 81 ea 7f 7f 81 0b 14 79
       13 -25 127 -95 -78 -123 -41 -21 -127 -22 127 127 -127 11 20 121
0000b0 d9 7f fc 63 69 29 7f 7f 3e 8a 7b d0 6b e7 e2 e0
       -39 127 -4 99 105 41 127 127 62 -118 123 -48 107 -25 -30 -32
0000c0 ab 8f 46 f2 cf 5a 7f c4 b5 4a 7f f8 cd 34 35 e8
       -85 -113 70 -14 -49 90 127 -60 -75 74 127 -8 -51 52 53 -24
0000d0 1a 7f e9 00 dd 2a 81 18 c1 17 81 fa 0e 32 42 7f
       26 127 -23 0 -35 42 -127 24 -63 23 -127 -6 14 50 66 127
0000e0 4c d6 fe e3 ff e8 6e df 7f 24 22 8a 1f 7f 19 eb
       76 -42 -2 -29 -1 -24 110 -33 127 36 34 -118 31 127 25 -21
0000f0 d3 05 05 7f 7f 7f 1c 9b e8 c7 b3 cf 07 c3 9b 76
       -45 5 5 127 127 127 28 -101 -24 -57 -77 -49 7 -61 -101 118

tfl.pseudo_qconst27 i1 [192, 1, 1, 64]
000000 db a1 f9 23 cd c3 8d d6 c6 09 fb 34 3b 0c c0 e9
       -37 -95 -7 35 -51 -61 -115 -42 -58 9 -5 52 59 12 -64 -23
000010 00 40 c8 37 26 57 ef fc c2 c6 d5 c0 dd 01 7f 69
       0 64 -56 55 38 87 -17 -4 -62 -58 -43 -64 -35 1 127 105
000020 1b 0f 27 bf 3c 91 03 08 1b e5 c8 2d fb e3 df 9f
       27 15 39 -65 60 -111 3 8 27 -27 -56 45 -5 -29 -33 -97
000030 b0 db f5 24 e2 0f f3 0e b3 32 ac 4d df d2 3b d7
       -80 -37 -11 36 -30 15 -13 14 -77 50 -84 77 -33 -46 59 -41
000040 2c be 38 b2 0a 00 0e 29 d1 d7 4d 52 c8 ce de ac
       44 -66 56 -78 10 0 14 41 -47 -41 77 82 -56 -50 -34 -84
000050 dc 3f da 29 fc 31 de 99 e4 f6 7f 0e 03 cb 07 d1
       -36 63 -38 41 -4 49 -34 -103 -28 -10 127 14 3 -53 7 -47
000060 05 07 c9 18 18 fa 81 0c e3 13 33 22 2c c3 dd 43
       5 7 -55 24 24 -6 -127 12 -29 19 51 34 44 -61 -35 67
000070 37 b3 0e 57 39 21 2d db 55 ba 18 2d 22 16 d9 d9
       55 -77 14 87 57 33 45 -37 85 -70 24 45 34 22 -39 -39
000080 8b 14 d2 2c 1b f0 c6 95 50 73 1b de c0 05 3a 20
       -117 20 -46 44 27 -16 -58 -107 80 115 27 -34 -64 5 58 32
000090 3b 3c 2e 04 21 37 ee 06 d7 96 20 da f8 12 fa 7f
       59 60 46 4 33 55 -18 6 -41 -106 32 -38 -8 18 -6 127
0000a0 af 68 cd cc fd f2 3b a9 d4 3c 37 4f ec 28 1f 28
       -81 104 -51 -52 -3 -14 59 -87 -44 60 55 79 -20 40 31 40
0000b0 af 35 de 30 ad 0b f8 ff 01 8e f6 07 0d f1 b4 28
       -81 53 -34 48 -83 11 -8 -1 1 -114 -10 7 13 -15 -76 40
0000c0 0e 0d 0f fb 0e 56 2c 47 a0 ef ee 0b 61 f4 45 21
       14 13 15 -5 14 86 44 71 -96 -17 -18 11 97 -12 69 33
0000d0 4d 39 dc 20 ec 1e 23 22 cd 3a 28 1c c4 69 30 fe
       77 57 -36 32 -20 30 35 34 -51 58 40 28 -60 105 48 -2
0000e0 ef 27 28 4e 13 1c 20 02 e1 06 35 63 41 23 bc 06
       -17 39 40 78 19 28 32 2 -31 6 53 99 65 35 -68 6
0000f0 e8 ee 14 3f 2a 7c ae 7b 28 3a e2 7f 03 69 67 12
       -24 -18 20 63 42 124 -82 123 40 58 -30 127 3 105 103 18

tfl.pseudo_qconst29 i1 [64, 1, 1, 192]
000000 c5 3a 03 f0 fe 2e 38 f7 fa e2 66 9e 0b cf c0 d2
       -59 58 3 -16 -2 46 56 -9 -6 -30 102 -98 11 -49 -64 -46
000010 f5 e1 11 49 c5 c9 ef 0e 28 eb f2 11 02 38 c8 8b
       -11 -31 17 73 -59 -55 -17 14 40 -21 -14 17 2 56 -56 -117
000020 9c d1 27 2d eb 02 ee e9 12 03 ae 16 e4 d3 d1 fe
       -100 -47 39 45 -21 2 -18 -23 18 3 -82 22 -28 -45 -47 -2
000030 da da da e1 04 81 22 fa fb 38 50 00 02 2c 05 48
       -38 -38 -38 -31 4 -127 34 -6 -5 56 80 0 2 44 5 72
000040 3f 16 ec 42 2a 2d ee e1 d2 c0 0c 6c 14 d6 27 9f
       63 22 -20 66 42 45 -18 -31 -46 -64 12 108 20 -42 39 -97
000050 0c cf c5 e6 d6 3e de 38 ff 16 00 58 17 24 03 10
       12 -49 -59 -26 -42 62 -34 56 -1 22 0 88 23 36 3 16
000060 da e0 dd 1a 17 04 1a 4d 05 f6 d8 d7 02 cc c3 c0
       -38 -32 -35 26 23 4 26 77 5 -10 -40 -41 2 -52 -61 -64
000070 29 d1 3c 18 be e2 e6 c5 d9 15 33 18 bd f2 e5 e1
       41 -47 60 24 -66 -30 -26 -59 -39 21 51 24 -67 -14 -27 -31
000080 16 a2 dc ee 11 df 2d c8 22 de 11 fb 01 d9 30 fb
       22 -94 -36 -18 17 -33 45 -56 34 -34 17 -5 1 -39 48 -5
000090 46 0a ea 3c f8 18 f5 2e cb dd 0b 9b 0a 37 02 f0
       70 10 -22 60 -8 24 -11 46 -53 -35 11 -101 10 55 2 -16
0000a0 2b f1 cf 3c 24 15 e6 28 ae fe 8e f5 23 00 13 e0
       43 -15 -49 60 36 21 -26 40 -82 -2 -114 -11 35 0 19 -32
0000b0 ec 28 52 b3 1b e9 f3 fa f5 74 ff 1e 11 18 2d ee
       -20 40 82 -77 27 -23 -13 -6 -11 116 -1 30 17 24 45 -18
0000c0 15 36 ea 1c 2b 0f c9 f4 27 2f 1b 69 25 14 08 3c
       21 54 -22 28 43 15 -55 -12 39 47 27 105 37 20 8 60
0000d0 16 cc c3 d0 7f bc 0b e7 f0 f7 f5 32 1e 53 2c 13
       22 -52 -61 -48 127 -68 11 -25 -16 -9 -11 50 30 83 44 19
0000e0 03 d7 ce e3 07 e9 be ce 31 14 12 ad af c6 e9 e9
       3 -41 -50 -29 7 -23 -66 -50 49 20 18 -83 -81 -58 -23 -23
0000f0 e1 dc 1c df 2b 27 2b ce fe cd 22 05 eb 21 f7 22
       -31 -36 28 -33 43 39 43 -50 -2 -51 34 5 -21 33 -9 34

tfl.pseudo_qconst31 i1 [1, 9, 1, 192]
000000 2b bf 81 05 55 c7 7f f9 71 13 90 7f 51 b5 5e 18
       43 -65 -127 5 85 -57 127 -7 113 19 -112 127 81 -75 94 24
000010 28 e8 17 c5 af f3 db 49 69 39 05 26 3a 05 af 81
       40 -24 23 -59 -81 -13 -37 73 105 57 5 38 58 5 -81 -127
000020 f2 81 c5 e9 42 65 a4 f0 ce 78 7f cf 7f 4f 7f 06
       -14 -127 -59 -23 66 101 -92 -16 -50 120 127 -49 127 79 127 6
000030 47 73 00 82 c1 91 bf e3 54 ad af cb f4 9d 16 fb
       71 115 0 -126 -63 -111 -65 -29 84 -83 -81 -53 -12 -99 22 -5
000040 d8 de f1 0b 35 f1 e7 81 bf 1c 51 bf db 7f 7f 28
       -40 -34 -15 11 53 -15 -25 -127 -65 28 81 -65 -37 127 127 40
000050 a9 81 6c 14 50 43 1e e0 a0 ed f2 de aa 06 e0 7f
       -87 -127 108 20 80 67 30 -32 -96 -19 -14 -34 -86 6 -32 127
000060 57 81 99 c5 8d 81 7f ba 14 1b c6 00 cd a6 8b 7f
       87 -127 -103 -59 -115 -127 127 -70 20 27 -58 0 -51 -90 -117 127
000070 7f cc 31 81 7f c6 cc e3 9c a1 7f 2d 21 7f 2e f6
       127 -52 49 -127 127 -58 -52 -29 -100 -95 127 45 33 127 46 -10
000080 b8 8c f7 7f 33 7f 07 e9 c4 81 9f 81 44 dd 7f 0a
       -72 -116 -9 127 51 127 7 -23 -60 -127 -97 -127 68 -35 127 10
000090 58 81 7f f6 e8 dc 49 b0 f6 1f e3 11 e6 d3 7f a0
       88 -127 127 -10 -24 -36 73 -80 -10 31 -29 17 -26 -45 127 -96
0000a0 4b 32 44 e0 e6 2f fd 81 d4 49 2a 27 91 d4 f6 54
       75 50 68 -32 -26 47 -3 -127 -44 73 42 39 -111 -44 -10 84
0000b0 b3 ff 7f 97 7f 68 d8 7f 1e d2 58 e1 3e 6f 3e bc
       -77 -1 127 -105 127 104 -40 127 30 -46 88 -31 62 111 62 -68
0000c0 fe ac 26 e6 a5 b0 b6 25 7f fe b3 3b 7f 00 6a 4c
       -2 -84 38 -26 -91 -80 -74 37 127 -2 -77 59 127 0 106 76
0000d0 1f db 7e 81 2c 6f fa cc 7f ba 65 7f bd 16 0b 44
       31 -37 126 -127 44 111 -6 -52 127 -70 101 127 -67 22 11 68
0000e0 2d d9 b4 8e 3f d4 ae aa 55 a7 13 b6 e2 e5 29 d2
       45 -39 -76 -114 63 -44 -82 -86 85 -89 19 -74 -30 -27 41 -46
0000f0 f3 7f 7f 51 d1 5b 81 18 02 fb 81 18 fb 0c ce 81
       -13 127 127 81 -47 91 -127 24 2 -5 -127 24 -5 12 -50 -127

tfl.pseudo_qconst33 i1 [192, 1, 1, 64]
000000 7f a1 b9 1a 0e e2 1d f5 aa e6 a8 bf 43 09 da 37
       127 -95 -71 26 14 -30 29 -11 -86 -26 -88 -65 67 9 -38 55
000010 2a f3 6c 3e af c8 fb 64 47 ef 42 28 27 f1 b9 a8
       42 -13 108 62 -81 -56 -5 100 71 -17 66 40 39 -15 -71 -88
000020 dc aa 02 57 25 09 36 07 e5 f6 de f8 31 e7 ed a7
       -36 -86 2 87 37 9 54 7 -27 -10 -34 -8 49 -25 -19 -89
000030 4b 2e d3 e6 d6 ea d9 c0 0a eb bd 54 04 b2 e9 11
       75 46 -45 -26 -42 -22 -39 -64 10 -21 -67 84 4 -78 -23 17
000040 c0 d6 f5 18 bc 23 de f0 59 7f 05 c6 b8 9f 4b 07
       -64 -42 -11 24 -68 35 -34 -16 89 127 5 -58 -72 -97 75 7
000050 d5 c5 d8 0a 42 63 2f b8 5d 4a ed b4 48 0a fe 25
       -43 -59 -40 10 66 99 47 -72 93 74 -19 -76 72 10 -2 37
000060 40 c7 db f0 1b 30 f5 da 19 c2 1b 21 d3 01 ed d2
       64 -57 -37 -16 27 48 -11 -38 25 -62 27 33 -45 1 -19 -46
000070 f2 c0 a6 c9 3e b4 f6 3d 04 6c 7e ef fd 3f dc df
       -14 -64 -90 -55 62 -76 -10 61 4 108 126 -17 -3 63 -36 -33
000080 b5 1f 10 5b 04 7f bc 18 d9 df a7 08 90 0c 0f e8
       -75 31 16 91 4 127 -68 24 -39 -33 -89 8 -112 12 15 -24
000090 66 47 d0 e7 ab f7 f5 f7 03 1e 26 56 e1 c8 cb ae
       102 71 -48 -25 -85 -9 -11 -9 3 30 38 86 -31 -56 -53 -82
0000a0 48 57 6f ff 13 34 f8 6d 42 a3 3a 45 bd 5d 34 d1
       72 87 111 -1 19 52 -8 109 66 -93 58 69 -67 93 52 -47
0000b0 ca 43 d5 7b 41 26 c9 31 16 bc c9 d6 d6 47 56 c6
       -54 67 -43 123 65 38 -55 49 22 -68 -55 -42 -42 71 86 -58
0000c0 ee 18 ca 28 2a bd 31 e9 a1 ec 39 c0 b6 c0 81 b9
       -18 24 -54 40 42 -67 49 -23 -95 -20 57 -64 -74 -64 -127 -71
0000d0 ef 12 19 eb b5 f5 65 b7 a4 aa d0 41 3a d8 e7 c2
       -17 18 25 -21 -75 -11 101 -73 -92 -86 -48 65 58 -40 -25 -62
0000e0 51 ff 1c fe 0f 25 20 3f f0 be 1a f1 de bf e4 da
       81 -1 28 -2 15 37 32 63 -16 -66 26 -15 -34 -65 -28 -38
0000f0 de 5d e9 32 fb 33 fd 0d ed 26 f6 db d7 c6 1c cd
       -34 93 -23 50 -5 51 -3 13 -19 38 -10 -37 -41 -58 28 -51

tfl.pseudo_qconst35 i1 [64, 1, 1, 192]
000000 d7 25 de 15 de 56 f8 19 be 37 f0 c0 b6 dc d9 3e
       -41 37 -34 21 -34 86 -8 25 -66 55 -16 -64 -74 -36 -39 62
000010 25 0b 10 3d bf 04 18 f4 e2 41 95 c1 1c 52 22 f0
       37 11 16 61 -65 4 24 -12 -30 65 -107 -63 28 82 34 -16
000020 9a ea c4 10 24 d4 22 04 26 7f 14 ec fe 37 df f6
       -102 -22 -60 16 36 -44 34 4 38 127 20 -20 -2 55 -33 -10
000030 52 16 f0 cb ed ba 3f cf 20 1b 03 2f d4 2f 18 0b
       82 22 -16 -53 -19 -70 63 -49 32 27 3 47 -44 47 24 11
000040 c6 0e e1 15 3e a7 df 10 fc 0e a9 41 cb e5 18 18
       -58 14 -31 21 62 -89 -33 16 -4 14 -87 65 -53 -27 24 24
000050 ec e5 d4 f8 14 3e e4 69 ab 65 e4 79 f5 c7 0c c7
       -20 -27 -44 -8 20 62 -28 105 -85 101 -28 121 -11 -57 12 -57
000060 f8 0b 2c 5d 1e 1c ca 2c 31 d6 e0 46 e1 39 1e 4e
       -8 11 44 93 30 28 -54 44 49 -42 -32 70 -31 57 30 78
000070 0d 57 cb ea 14 0b b1 18 0e 2f 0a d9 1f 2b d8 d7
       13 87 -53 -22 20 11 -79 24 14 47 10 -39 31 43 -40 -41
000080 ce fd 38 d0 56 32 fa bd 48 36 4d bf 39 3e e6 ae
       -50 -3 56 -48 86 50 -6 -67 72 54 77 -65 57 62 -26 -82
000090 52 4f 03 cc 1a e9 eb 37 d6 0c f5 e9 01 a6 e6 f5
       82 79 3 -52 26 -23 -21 55 -42 12 -11 -23 1 -90 -26 -11
0000a0 e5 39 2f bd dc 05 9d a8 14 d5 0f 03 09 71 0b 06
       -27 57 47 -67 -36 5 -99 -88 20 -43 15 3 9 113 11 6
0000b0 fa 09 f6 21 44 ee 28 f4 25 ff f0 1d 65 d8 fc e7
       -6 9 -10 33 68 -18 40 -12 37 -1 -16 29 101 -40 -4 -25
0000c0 ca cb fd f2 2f f7 24 c4 d2 eb 51 d5 2a 4b 49 f7
       -54 -53 -3 -14 47 -9 36 -60 -46 -21 81 -43 42 75 73 -9
0000d0 33 60 00 ea 41 01 d2 de cd 33 08 f0 e3 39 d7 d9
       51 96 0 -22 65 1 -46 -34 -51 51 8 -16 -29 57 -41 -39
0000e0 09 f5 16 2d 9b ba f0 11 42 ea 2a 59 26 d4 0a ee
       9 -11 22 45 -101 -70 -16 17 66 -22 42 89 38 -44 10 -18
0000f0 ff 4a 18 f7 5f 25 1a 00 27 e5 02 01 fc 00 b6 e0
       -1 74 24 -9 95 37 26 0 39 -27 2 1 -4 0 -74 -32

tfl.pseudo_qconst37 i1 [1, 9, 1, 192]
000000 0f a2 af 5e 02 e7 51 7f 97 59 14 ab f4 33 7f fb
       15 -94 -81 94 2 -25 81 127 -105 89 20 -85 -12 51 127 -5
000010 9b 4e 6b 7f f3 df 1c 4b dd dd 69 81 8e f1 4a f6
       -101 78 107 127 -13 -33 28 75 -35 -35 105 -127 -114 -15 74 -10
000020 b9 81 f0 23 39 c0 d6 0b 7f bd 60 81 eb e7 27 75
       -71 -127 -16 35 57 -64 -42 11 127 -67 96 -127 -21 -25 39 117
000030 af bf c9 7f 1b d9 81 48 ff b5 d6 c8 a5 ea 37 fd
       -81 -65 -55 127 27 -39 -127 72 -1 -75 -42 -56 -91 -22 55 -3
000040 dc fd f6 4d 81 6a 37 7f 42 bb 7f b0 ff 7f e1 05
       -36 -3 -10 77 -127 106 55 127 66 -69 127 -80 -1 127 -31 5
000050 be f6 be 04 e7 d2 2f 7f 7f 92 92 7f e3 e0 9c d0
       -66 -10 -66 4 -25 -46 47 127 127 -110 -110 127 -29 -32 -100 -48
000060 e9 29 b6 08 7f 16 b9 50 4a 1f 6b ab 4d a0 9d fb
       -23 41 -74 8 127 22 -71 80 74 31 107 -85 77 -96 -99 -5
000070 11 a3 fc f0 25 df 9c 81 7f e2 5a 96 19 81 87 c8
       17 -93 -4 -16 37 -33 -100 -127 127 -30 90 -106 25 -127 -121 -56
000080 5d 7f 35 d2 90 df be 4c 86 be 29 4f 7f c5 f4 59
       93 127 53 -46 -112 -33 -66 76 -122 -66 41 79 127 -59 -12 89
000090 6e bc ee b5 86 ba bd d3 d4 99 da fe f1 63 5c 1d
       110 -68 -18 -75 -122 -70 -67 -45 -44 -103 -38 -2 -15 99 92 29
0000a0 8d 3c d6 49 81 2c 17 25 d4 77 ea b8 51 a4 f7 48
       -115 60 -42 73 -127 44 23 37 -44 119 -22 -72 81 -92 -9 72
0000b0 81 c6 87 c1 3d 85 1a db 99 ea 30 61 08 fa c1 f2
       -127 -58 -121 -63 61 -123 26 -37 -103 -22 48 97 8 -6 -63 -14
0000c0 32 18 2f 42 46 4b 89 46 fe 62 62 81 04 f9 e4 22
       50 24 47 66 70 75 -119 70 -2 98 98 -127 4 -7 -28 34
0000d0 3d 04 fe 13 7f 62 6c 7f b8 e4 9e d1 be 04 fa 06
       61 4 -2 19 127 98 108 127 -72 -28 -98 -47 -66 4 -6 6
0000e0 51 7c 7f 7f c3 b2 81 d2 24 e1 4f db 95 d5 00 00
       81 124 127 127 -61 -78 -127 -46 36 -31 79 -37 -107 -43 0 0
0000f0 b8 de 41 38 03 c0 fe 66 c8 02 a4 96 db 2b c6 90
       -72 -34 65 56 3 -64 -2 102 -56 2 -92 -106 -37 43 -58 -112

tfl.pseudo_qconst39 i1 [192, 1, 1, 64]
000000 a5 84 0c db f2 23 bf aa 40 d6 22 2a 12 31 1d b9
       -91 -124 12 -37 -14 35 -65 -86 64 -42 34 42 18 49 29 -71
000010 18 ea 3a 1b eb 47 1d 89 dd a8 06 7f 53 f3 40 d8
       24 -22 58 27 -21 71 29 -119 -35 -88 6 127 83 -13 64 -40
000020 07 f0 de c9 d3 43 2e fd 3a c7 f0 09 fe 18 24 e6
       7 -16 -34 -55 -45 67 46 -3 58 -57 -16 9 -2 24 36 -26
000030 fe 09 4e 2c 2d 2c ec 33 24 d6 d8 d3 f8 bb 34 31
       -2 9 78 44 45 44 -20 51 36 -42 -40 -45 -8 -69 52 49
000040 a1 42 1f c3 f3 dc d0 e7 7f ee 39 fe 19 d4 f2 b7
       -95 66 31 -61 -13 -36 -48 -25 127 -18 57 -2 25 -44 -14 -73
000050 09 d6 b7 62 01 2b c8 c0 b1 1c ab d3 d7 0a e6 27
       9 -42 -73 98 1 43 -56 -64 -79 28 -85 -45 -41 10 -26 39
000060 29 eb d9 1c d2 63 c7 9b ab 15 cb 01 12 24 25 55
       41 -21 -39 28 -46 99 -57 -101 -85 21 -53 1 18 36 37 85
000070 da 08 c6 e8 0d df cb d1 c9 e3 41 db ed db f2 21
       -38 8 -58 -24 13 -33 -53 -47 -55 -29 65 -37 -19 -37 -14 33
000080 de 35 1f 41 dd 26 cc 0a d4 0d 42 f0 e7 f3 f1 d0
       -34 53 31 65 -35 38 -52 10 -44 13 66 -16 -25 -13 -15 -48
000090 1d 13 e8 ef 1b 13 1c 13 4e 28 e2 1f 35 14 36 4d
       29 19 -24 -17 27 19 28 19 78 40 -30 31 53 20 54 77
0000a0 35 da ba 2b 3a 42 e5 f2 1b 32 dc ff 4b 0d ec 04
       53 -38 -70 43 58 66 -27 -14 27 50 -36 -1 75 13 -20 4
0000b0 47 d8 14 1d 74 d3 f4 00 cb 24 7f e0 cd b2 ed 0f
       71 -40 20 29 116 -45 -12 0 -53 36 127 -32 -51 -78 -19 15
0000c0 fd bd 0e 37 1e 0c fe 09 42 ec 0a e3 e8 31 20 f2
       -3 -67 14 55 30 12 -2 9 66 -20 10 -29 -24 49 32 -14
0000d0 40 27 18 e3 03 e3 2b 12 10 fb 36 36 45 a6 03 52
       64 39 24 -29 3 -29 43 18 16 -5 54 54 69 -90 3 82
0000e0 23 fb c7 f4 f0 d2 30 f8 cb 4d f6 cc 41 e4 3f d4
       35 -5 -57 -12 -16 -46 48 -8 -53 77 -10 -52 65 -28 63 -44
0000f0 0d 28 20 06 7f c8 c0 2e 90 57 53 04 02 d2 16 f1
       13 40 32 6 127 -56 -64 46 -112 87 83 4 2 -46 22 -15

tfl.pseudo_qconst41 i1 [64, 1, 1, 192]
000000 0c 2e dc b8 f7 f6 d2 32 c6 ba d6 37 f4 b4 f1 29
       12 46 -36 -72 -9 -10 -46 50 -58 -70 -42 55 -12 -76 -15 41
000010 b4 dd 13 be 3b 07 da 2f 2b 10 96 0e 50 2a 51 1a
       -76 -35 19 -66 59 7 -38 47 43 16 -106 14 80 42 81 26
000020 40 f5 6e 1b b1 df 00 4d 67 f5 0a 27 db ea 10 d2
       64 -11 110 27 -79 -33 0 77 103 -11 10 39 -37 -22 16 -46
000030 fd c6 a8 07 1f 14 fb 49 4e 3d ce a4 e7 cb ee ab
       -3 -58 -88 7 31 20 -5 73 78 61 -50 -92 -25 -53 -18 -85
000040 31 1a ea 5c 3d d8 07 0c c3 1d b9 2a 9e 33 a2 fa
       49 26 -22 92 61 -40 7 12 -61 29 -71 42 -98 51 -94 -6
000050 d7 e7 a1 25 1a dd ad 3d ba bd ff 44 ca c1 e1 a8
       -41 -25 -95 37 26 -35 -83 61 -70 -67 -1 68 -54 -63 -31 -88
000060 28 b8 c6 c9 1b f1 0e c5 dc ca d5 6d dc b8 27 b3
       40 -72 -58 -55 27 -15 14 -59 -36 -54 -43 109 -36 -72 39 -77
000070 ea d3 bc 2b 22 18 ff 07 08 fa 22 12 40 81 e6 21
       -22 -45 -68 43 34 24 -1 7 8 -6 34 18 64 -127 -26 33
000080 4f b7 b4 00 48 d5 08 cc cf ed a8 8c b5 29 02 18
       79 -73 -76 0 72 -43 8 -52 -49 -19 -88 -116 -75 41 2 24
000090 fd af f4 18 83 1f df 5c e4 d5 00 fa dc 67 b9 4a
       -3 -81 -12 24 -125 31 -33 92 -28 -43 0 -6 -36 103 -71 74
0000a0 0d 13 18 c5 da 05 33 f8 aa 6d e6 85 dd f8 f8 2a
       13 19 24 -59 -38 5 51 -8 -86 109 -26 -123 -35 -8 -8 42
0000b0 00 e7 97 e5 e6 a7 23 c6 e2 24 26 fb d4 b7 f0 d1
       0 -25 -105 -27 -26 -89 35 -58 -30 36 38 -5 -44 -73 -16 -47
0000c0 f8 19 22 e6 12 ea af fc e1 a4 17 7f e3 fc 1f b8
       -8 25 34 -26 18 -22 -81 -4 -31 -92 23 127 -29 -4 31 -72
0000d0 b1 29 3d f8 e3 15 0d 61 b2 2d 23 15 ff bc e9 db
       -79 41 61 -8 -29 21 13 97 -78 45 35 21 -1 -68 -23 -37
0000e0 69 d3 62 fc 4f 29 d7 22 fc fd 02 0c c2 4e d7 fc
       105 -45 98 -4 79 41 -41 34 -4 -3 2 12 -62 78 -41 -4
0000f0 1b a5 31 5c 30 f5 1b da 2c aa 26 f9 20 58 b8 a2
       27 -91 49 92 48 -11 27 -38 44 -86 38 -7 32 88 -72 -94

tfl.pseudo_qconst43 i1 [1, 9, 1, 192]
000000 12 f8 e5 bf 7f d5 81 3c cb 14 2d ae 59 f6 7e a4
       18 -8 -27 -65 127 -43 -127 60 -53 20 45 -82 89 -10 126 -92
000010 92 7f 0a 19 c0 c4 fd 51 81 f0 7f 7f 84 b2 fe 7b
       -110 127 10 25 -64 -60 -3 81 -127 -16 127 127 -124 -78 -2 123
000020 b8 c6 b0 13 22 8c 5e c7 04 3b 9e b8 81 7f 04 de
       -72 -58 -80 19 34 -116 94 -57 4 59 -98 -72 -127 127 4 -34
000030 aa 7f 4f d3 07 bb f6 81 7c a1 7f 7f e7 ff 21 6d
       -86 127 79 -45 7 -69 -10 -127 124 -95 127 127 -25 -1 33 109
000040 39 c9 19 5f 6e 31 22 c6 51 1f 50 e5 dd 60 16 cf
       57 -55 25 95 110 49 34 -58 81 31 80 -27 -35 96 22 -49
000050 fb c9 59 cd f6 81 7f 15 e0 49 b2 33 99 ea b7 59
       -5 -55 89 -51 -10 -127 127 21 -32 73 -78 51 -103 -22 -73 89
000060 da 7f 81 54 81 bc e9 81 0b 29 fc 81 06 81 58 20
       -38 127 -127 84 -127 -68 -23 -127 11 41 -4 -127 6 -127 88 32
000070 54 45 3f 35 96 ef fe c2 eb 7f e4 04 81 7f d0 ce
       84 69 63 53 -106 -17 -2 -62 -21 127 -28 4 -127 127 -48 -50
000080 f4 3e 81 d0 24 18 5f 7f 7f b2 b6 eb cc d0 1c 8f
       -12 62 -127 -48 36 24 95 127 127 -78 -74 -21 -52 -48 28 -113
000090 de bd 79 ba 10 89 22 5d 87 d5 1a ba 5b cf 81 54
       -34 -67 121 -70 16 -119 34 93 -121 -43 26 -70 91 -49 -127 84
0000a0 d1 3f 45 d3 e1 0f c2 3e d3 2f a8 b7 81 e5 d4 ed
       -47 63 69 -45 -31 15 -62 62 -45 47 -88 -73 -127 -27 -44 -19
0000b0 7f 45 e6 96 53 1e 71 c2 f3 12 c6 e0 d4 3f 81 92
       127 69 -26 -106 83 30 113 -62 -13 18 -58 -32 -44 63 -127 -110
0000c0 25 0d 6f 12 0f 00 c7 1c 9b 21 63 e8 7f 6e 30 81
       37 13 111 18 15 0 -57 28 -101 33 99 -24 127 110 48 -127
0000d0 c2 f5 c4 ef ea 5b c3 5d d2 81 37 44 22 f0 a9 bb
       -62 -11 -60 -17 -22 91 -61 93 -46 -127 55 68 34 -16 -87 -69
0000e0 b1 7f 22 7f 81 21 30 0e 58 a6 26 25 96 c7 45 57
       -79 127 34 127 -127 33 48 14 88 -90 38 37 -106 -57 69 87
0000f0 f7 70 7f 3d 54 73 7f 09 e5 c0 2c 2a 0c 7f 81 e5
       -9 112 127 61 84 115 127 9 -27 -64 44 42 12 127 -127 -27

tfl.pseudo_qconst45 i1 [192, 1, 1, 64]
000000 b8 9b b3 a4 3d 52 3d 26 2f 81 b9 fe f0 c1 0e d3
       -72 -101 -77 -92 61 82 61 38 47 -127 -71 -2 -16 -63 14 -45
000010 fd 2b d0 e4 bb 07 d7 d5 c9 c8 a9 0e d9 b2 be 32
       -3 43 -48 -28 -69 7 -41 -43 -55 -56 -87 14 -39 -78 -66 50
000020 c3 10 04 ee b6 37 5a ba c4 4c 1a 2f 7d 2d fa 72
       -61 16 4 -18 -74 55 90 -70 -60 76 26 47 125 45 -6 114
000030 d6 9f d5 d6 1e c6 cc f0 e5 45 2b e7 9d d3 cc 4d
       -42 -97 -43 -42 30 -58 -52 -16 -27 69 43 -25 -99 -45 -52 77
000040 c5 da e8 a5 f6 e6 39 36 fc 3f 74 c6 c7 d3 b7 18
       -59 -38 -24 -91 -10 -26 57 54 -4 63 116 -58 -57 -45 -73 24
000050 c8 1a f6 d1 1e 2d 3a 12 1a 24 f7 4b df 3b 25 47
       -56 26 -10 -47 30 45 58 18 26 36 -9 75 -33 59 37 71
000060 eb e3 9f f4 4b 37 e5 ee 8e ec ea da 22 e3 02 2d
       -21 -29 -97 -12 75 55 -27 -18 -114 -20 -22 -38 34 -29 2 45
000070 f6 b7 f6 c1 0d 26 e0 dd 2d b7 7f 99 04 de 37 17
       -10 -73 -10 -63 13 38 -32 -35 45 -73 127 -103 4 -34 55 23
000080 d7 f9 5c 26 d1 17 3d e1 19 c7 32 56 00 fa 8a e2
       -41 -7 92 38 -47 23 61 -31 25 -57 50 86 0 -6 -118 -30
000090 06 fa 1e 7f f1 0a d8 3b ff a9 18 af a9 29 fa 2d
       6 -6 30 127 -15 10 -40 59 -1 -87 24 -81 -87 41 -6 45
0000a0 2a 60 ed 0f 66 3e 9e 11 ba bb ee ca e6 e2 23 ca
       42 96 -19 15 102 62 -98 17 -70 -69 -18 -54 -26 -30 35 -54
0000b0 b2 f0 ee ba fa 24 3e 69 d1 e3 4a 25 14 07 15 12
       -78 -16 -18 -70 -6 36 62 105 -47 -29 74 37 20 7 21 18
0000c0 95 1d 04 e9 ff d0 b7 2d b6 09 41 54 aa 55 49 8a
       -107 29 4 -23 -1 -48 -73 45 -74 9 65 84 -86 85 73 -118
0000d0 56 13 36 7f e6 be de 63 62 08 77 31 66 2a 94 e0
       86 19 54 127 -26 -66 -34 99 98 8 119 49 102 42 -108 -32
0000e0 c5 bf 9d 18 4c 50 22 2d 74 57 7f 48 a4 1b 5b e6
       -59 -65 -99 24 76 80 34 45 116 87 127 72 -92 27 91 -26
0000f0 f6 3b 39 fd ec 08 5c 0f 9c cd aa a1 c5 13 ba 33
       -10 59 57 -3 -20 8 92 15 -100 -51 -86 -95 -59 19 -70 51

tfl.pseudo_qconst47 i1 [64, 1, 1, 64]
000000 f0 39 d1 da 39 20 fb b2 26 df ba 0e f0 48 eb d2
       -16 57 -47 -38 57 32 -5 -78 38 -33 -70 14 -16 72 -21 -46
000010 0a df 0b 14 cb 12 b4 c8 d9 1d cd ae ce ef f6 c8
       10 -33 11 20 -53 18 -76 -56 -39 29 -51 -82 -50 -17 -10 -56
000020 e1 d7 c5 0c d8 1b 0c e7 d6 cb b8 09 ea 03 3e 38
       -31 -41 -59 12 -40 27 12 -25 -42 -53 -72 9 -22 3 62 56
000030 58 ec d6 b0 e1 f3 0e 7f 30 11 27 d2 29 e9 d1 ff
       88 -20 -42 -80 -31 -13 14 127 48 17 39 -46 41 -23 -47 -1
000040 dc c1 05 32 2b c7 60 48 2f ce 2d 28 22 e2 3f 13
       -36 -63 5 50 43 -57 96 72 47 -50 45 40 34 -30 63 19
000050 2f db 03 d1 2f fc ce 2c 33 f2 fc 14 2b 45 29 e5
       47 -37 3 -47 47 -4 -50 44 51 -14 -4 20 43 69 41 -27
000060 c2 14 cc 07 de dd d5 f5 c4 d1 30 27 7f 1e dc 27
       -62 20 -52 7 -34 -35 -43 -11 -60 -47 48 39 127 30 -36 39
000070 b8 04 01 62 d0 f5 2c 36 f1 6b 33 04 38 b3 be e7
       -72 4 1 98 -48 -11 44 54 -15 107 51 4 56 -77 -66 -25
000080 df b4 b2 c0 f7 28 ca 2e 18 f1 df e5 cf d6 1e 01
       -33 -76 -78 -64 -9 40 -54 46 24 -15 -33 -27 -49 -42 30 1
000090 01 e5 48 b3 05 d1 4e ff f2 a3 7f 6b 00 0e eb 17
       1 -27 72 -77 5 -47 78 -1 -14 -93 127 107 0 14 -21 23
0000a0 29 35 19 fe 20 25 3a 02 e3 eb bf f7 f9 30 27 cd
       41 53 25 -2 32 37 58 2 -29 -21 -65 -9 -7 48 39 -51
0000b0 16 ff 09 47 4a 1e cf d0 0f 0a e1 c5 fb f2 ed e0
       22 -1 9 71 74 30 -49 -48 15 10 -31 -59 -5 -14 -19 -32
0000c0 d8 1e c3 27 de 3f ff d5 9f 27 32 26 1b b4 af dc
       -40 30 -61 39 -34 63 -1 -43 -97 39 50 38 27 -76 -81 -36
0000d0 c7 ea 27 ff d7 d0 18 d6 26 fe 21 db 2e ee e7 43
       -57 -22 39 -1 -41 -48 24 -42 38 -2 33 -37 46 -18 -25 67
0000e0 2b 37 05 81 b5 33 f3 b7 e9 11 ec 21 2e fd fd 2b
       43 55 5 -127 -75 51 -13 -73 -23 17 -20 33 46 -3 -3 43
0000f0 23 96 e3 dc bb 1e c5 ef 31 a7 b7 cd e4 ed 31 d3
       35 -106 -29 -36 -69 30 -59 -17 49 -89 -73 -51 -28 -19 49 -45

tfl.pseudo_qconst49 i1 [64, 1, 1, 192]
000000 28 e6 c2 02 d2 12 2b bf 29 35 ba e1 16 0c 22 1a
       40 -26 -62 2 -46 18 43 -65 41 53 -70 -31 22 12 34 26
000010 e7 1d 0f d4 d3 f9 1c 04 fd d8 2f 06 f3 e2 fb 0f
       -25 29 15 -44 -45 -7 28 4 -3 -40 47 6 -13 -30 -5 15
000020 d6 e6 ea 1a 12 26 d4 06 dc e2 2c 00 52 02 fa 0c
       -42 -26 -22 26 18 38 -44 6 -36 -30 44 0 82 2 -6 12
000030 fb f1 da d5 fe 24 04 f0 10 ff d4 d2 0a 2a e5 49
       -5 -15 -38 -43 -2 36 4 -16 16 -1 -44 -46 10 42 -27 73
000040 15 de e1 4f 07 d8 d5 44 52 7f 0b 32 c4 0c c9 49
       21 -34 -31 79 7 -40 -43 68 82 127 11 50 -60 12 -55 73
000050 2f 0d 0f 26 fc 06 f9 d3 b7 e7 f9 17 ee e7 14 0f
       47 13 15 38 -4 6 -7 -45 -73 -25 -7 23 -18 -25 20 15
000060 10 36 1b 29 66 22 e6 de f2 d7 31 01 37 25 07 0e
       16 54 27 41 102 34 -26 -34 -14 -41 49 1 55 37 7 14
000070 e4 f1 36 06 32 ea 03 fc d1 2b 58 28 06 0b 2e d5
       -28 -15 54 6 50 -22 3 -4 -47 43 88 40 6 11 46 -43
000080 31 1b f7 e8 13 fd 12 2a d9 d7 df 0d 3d 16 e9 0b
       49 27 -9 -24 19 -3 18 42 -39 -41 -33 13 61 22 -23 11
000090 df c4 d2 ef 24 34 2e fe da b9 33 cb 2c 16 a5 e8
       -33 -60 -46 -17 36 52 46 -2 -38 -71 51 -53 44 22 -91 -24
0000a0 38 09 26 2b fe f1 e0 ce 3b 2e 6d 41 29 f1 f0 1c
       56 9 38 43 -2 -15 -32 -50 59 46 109 65 41 -15 -16 28
0000b0 d3 e0 17 67 c5 d6 28 25 21 07 ee 31 ca 01 03 1c
       -45 -32 23 103 -59 -42 40 37 33 7 -18 49 -54 1 3 28
0000c0 11 16 e0 30 d0 f0 ad 43 0a b4 4e bc e4 d6 39 aa
       17 22 -32 48 -48 -16 -83 67 10 -76 78 -68 -28 -42 57 -86
0000d0 31 c5 cf 26 4b 3a bb 1b fe 03 0e dd 54 f3 c5 22
       49 -59 -49 38 75 58 -69 27 -2 3 14 -35 84 -13 -59 34
0000e0 0c 3a f8 2d d3 26 37 3e 0d 00 32 ce 47 de d5 df
       12 58 -8 45 -45 38 55 62 13 0 50 -50 71 -34 -43 -33
0000f0 fb 1a 16 45 34 e3 b0 39 e4 0e 27 c7 29 bf d2 d7
       -5 26 22 69 52 -29 -80 57 -28 14 39 -57 41 -65 -46 -41
